models/model_PPO.pt (torch, 275036 bytes, 6 tensors)

fc1.weight f4 [256, 4]
0.2130998 0.4730339 0.39367712 0.4365274 0.4249843 -0.09159289 0.31960195 0.17380609
0.45696217 -0.31887692 -0.49428383 0.3275363 0.06765915 -0.089124605 0.061166164 -0.2755202
-0.042438306 -0.17209272 0.46078172 -0.24777174 0.01146055 -0.29089248 -0.15762731 0.3394854
-0.043317497 -0.35408223 -0.13381404 -0.15295894 0.055474613 0.44947717 0.18760419 0.3754505
-0.35480475 0.21963356 0.35818303 0.22727048 -0.37272066 -0.4424472 -0.07957852 -0.39278018
-0.30123872 -0.090723455 0.13279927 -0.044985175 0.24465875 -0.34232873 -0.12267541 0.08599731
0.45502558 -0.03715474 -0.30022708 0.22641076 -0.02956953 0.15807462 0.0012078334 0.17252688
-0.43255466 -0.057748854 -0.4392513 -0.17570561 0.5030427 -0.18634395 -0.2068823 0.38303408
0.30120677 -0.013445849 -0.06846706 0.43461975 -0.019318797 0.31532413 0.38058856 -0.07633146
-0.0018365285 0.018058794 -0.100587755 -0.4922315 -0.038567558 -0.04051256 0.32368422 -0.016582604
0.2285868 -0.2610057 0.058976293 -0.2941218 -0.066315815 -0.45234782 -0.14086814 0.07890934
-0.108992785 -0.3438958 -0.48329896 0.49739042 -0.31455874 0.36550924 0.23763284 0.25573286
0.45441145 0.11488817 -0.29452622 -0.39859068 0.10030635 0.3258143 0.06385734 -0.47758943
-0.41182953 -0.0777179 -0.48533216 0.36750957 0.3490598 -0.23990856 0.328275 0.13296317
-0.22873352 -0.20176998 0.48236617 -0.32240987 0.1756275 -0.3328356 0.37723276 0.02022921
-0.39525324 0.07520509 0.12504053 -0.042853117 -0.15155363 0.27550292 0.3305306 0.09787963
0.19246358 -0.4171052 -0.19145238 -0.10294533 -0.18467498 -0.0020516657 -0.31519085 0.49273232
0.39438006 -0.29007396 -0.071815684 0.14295545 -0.085704565 0.37752146 -0.42529717 -0.25343686
0.32871786 0.21210814 0.27217582 0.050797194 -0.08622356 0.033403676 0.4446041 0.23713167
-0.46424556 -0.37205505 0.16038524 0.39835128 0.33490998 -0.1195087 0.35083252 -0.042451166
-0.02304104 0.06988013 0.15623449 -0.01912187 0.37031665 -0.19964635 0.16418123 0.43584532
-0.19148839 -0.29848045 -0.065679014 -0.08895838 0.2045615 0.18431932 -0.43361855 -0.19423193
0.024186926 0.29332498 0.14928445 0.11500869 -0.2977968 -0.2891491 0.48577237 -0.4153701
0.08813732 0.4691661 -0.049706195 0.32792047 -0.34362897 0.34788668 0.32311097 0.27330533
-0.39685383 -0.075783186 0.44469127 0.03981848 0.119674966 -0.3362737 0.08671029 0.18187283
0.075870715 0.4914678 0.4335073 -0.16001801 0.31630778 -0.26434422 -0.012781581 0.17001356
-0.0032801114 -0.02155071 0.45192716 -0.108142726 0.40021986 -0.08468446 0.06934203 -0.39934883
-0.05334319 0.19074143 -0.24405664 -0.4447034 0.021465333 -0.06878052 0.44247612 -0.39801422
-0.24697328 0.17131078 -0.28348446 -0.30813336 0.22054303 -0.07598393 0.35194874 0.07149328
0.047930956 -0.3857731 -0.36844516 0.49965042 0.041572146 0.06495933 0.21281113 0.16270433
0.10273848 -0.26429492 0.34231445 -0.29359588 -0.45449787 0.20718716 -0.35355002 0.19347899
0.21531364 -0.12109725 -0.21048129 -0.49143928 0.21402997 -0.46665776 -0.2607444 -0.0017667711
00000000: d536 5a3e 8031 f23e 0c90 c93e 8580 df3e
00000010: 8b97 d93e 0e95 bbbd dea2 a33e 39fa 313e
00000020: f2f6 e93e d643 a3be c512 fdbe d7b2 a73e
00000030: e190 8a3d f686 b6bd 5f89 7a3d fc10 8dbe
00000040: cad3 2dbd 1339 30be 95eb eb3e e0b7 7dbe
00000050: 08c5 3b3c dcef 94be 0e69 21be 08d1 ad3e
00000060: b06d 31bd 444a b5be 8c06 09be 45a1 1cbe
00000070: 5939 633d df21 e63e 501b 403e 0c3b c03e
00000080: f8a8 b5be 9fe7 603e c463 b73e 98b9 683e
00000090: 3ed5 bebe 7088 e2be 10fa a2bd 7c1a c9be
000000a0: f63b 9abe 38cd b9bd 88fc 073e 6042 38bd
000000b0: d387 7a3e b645 afbe 3f3d fbbd 5c1f b03d
000000c0: 1df9 e83e 922f 18bd 5db7 99be 39d8 673e
000000d0: cd3b f2bc 50de 213e 2a50 9e3a e3aa 303e
000000e0: ce77 ddbe 108a 6cbd 8ce5 e0be 2cec 33be
000000f0: 68c7 003f f3d0 3ebe f4d8 53be 0b1d c43e
00000100: c637 9a3e fa4b 5cbc 7538 8cbd 7b86 de3e
00000110: 7442 9ebc 2a72 a13e 81dc c23e ab53 9cbd
00000120: acb7 f0ba 09f0 933c f400 cebd c405 fcbe
00000130: 04f9 1dbd 80f0 25bd f0b9 a53e 3ed8 87bc
00000140: a812 6a3e 8aa2 85be 2091 713d 2297 96be
00000150: 96d0 87bd 229a e7be bd3f 10be 389b a13d
00000160: 9c37 dfbd 1c13 b0be f672 f7be f5a9 fe3e
00000170: d80d a1be 0724 bb3e 0656 733e 6bef 823e
00000180: 9ea8 e83e 7d4a eb3d 24cc 96be 1414 ccbe
00000190: 6a6d cd3d 22d1 a63e a3c7 823d 9a86 f4be
000001a0: 52db d2be 902a 9fbd 757d f8be 372a bc3e
000001b0: f7b7 b23e 97aa 75be a913 a83e 7f27 083e
000001c0: 1f39 6abe ca9c 4ebe b3f8 f63e e812 a5be
000001d0: b2d7 333e 6e69 aabe a724 c13e bab7 a53c
000001e0: a25e cabe 2005 9a3d a00a 003e c086 2fbd
000001f0: e030 1bbe b80e 8d3e 4f3b a93e 1e75 c83d
00000200: 2c15 453e d08e d5be 180c 44be 00d5 d2bd
00000210: 701b 3dbe 3d75 06bb b260 a1be 6947 fc3e
00000220: 2fec c93e 9384 94be 1a14 93bd ea62 123e
00000230: e085 afbd 7e4a c13e 8dc0 d9be 7ac2 81be
00000240: b54d a83e e032 593e a15a 8b3e b810 503d
00000250: fa95 b0bd 4bd2 083d 26a3 e33e a5d2 723e
00000260: 98b1 edbe 007e bebe 073c 243e b3f4 cb3e
00000270: 5279 ab3e fac0 f4bd 52a0 b33e 46e1 2dbd
00000280: 90c0 bcbc 501d 8f3d effb 1f3e 78a5 9cbc
00000290: 259a bd3e 1870 4cbe 201f 283e 1e27 df3e
000002a0: 8815 44be 6ed2 98be b882 86bd d02f b6bd
000002b0: 9278 513e 34be 3c3e 4003 debe bce4 46be
000002c0: a923 c63c b12e 963e 06de 183e ad89 eb3d
000002d0: d278 98be 5a0b 94be 28b7 f83e 64ab d4be
000002e0: 5781 b43d 8a36 f03e b998 4bbd 31e5 a73e
000002f0: 23f0 afbe 341e b23e cd6e a53e adee 8b3e
00000300: 6d30 cbbe 3734 9bbd 93ae e33e b418 233d
00000310: 2618 f53d 112c acbe 2a95 b13d df3c 3a3e
00000320: 1b62 9b3d aba1 fb3e abf4 dd3e c3db 23be
00000330: 18f3 a13e 2058 87be d669 51bc 0918 2e3e
00000340: 23f7 56bb 1d8b b0bc ff62 e73e ef79 ddbd
00000350: 9ee9 cc3e 0c6f adbd 3203 8e3d 7377 ccbe
00000360: 647e 5abd b951 433e fce9 79be 2ab0 e3be
00000370: 11d8 af3c cddc 8cbd 3b8c e23e 85c8 cbbe
00000380: 90e6 7cbe 186c 2f3e e024 91be a8c3 9dbe
00000390: 08d6 613e 769d 9bbd a032 b43e 126b 923d
000003a0: 4053 443d 0d84 c5be d8a4 bcbe 2ed2 ff3e
000003b0: 8e47 2a3d 6609 853d 29eb 593e f79b 263e
000003c0: 8d68 d23d aa51 87be d743 af3e 3352 96be
000003d0: f2b3 e8be df28 543e 8204 b5be 5b1f 463e
000003e0: 2e7b 5c3e d601 f8bd 6888 57be ee9d fbbe
000003f0: ac2a 5b3e c4ed eebe 4a80 85be 0093 e7ba

fc1.bias f4 [256]
-0.028062157 -0.022002675 0.3707623 0.46213254 0.2901348 0.13378388 0.24172722 0.46870488
0.22871664 -0.47557378 -0.15715325 -0.42431647 0.077957705 0.30403307 0.2968339 -0.3120516
-0.06370541 -0.39331725 0.4761035 0.4447543 -0.4007522 0.27422318 0.08096667 0.24453947
0.3770414 0.39001703 0.23457809 0.14253955 0.20975445 0.24695988 -0.15464199 0.31886494
-0.0771541 0.23446113 0.37021077 0.31421298 0.20772533 -0.38529533 -0.39818025 0.17252958
-0.27741864 0.13574854 -0.43059903 0.33613738 -0.34039143 -0.33769944 0.20893353 -0.4807111
-0.23663563 -0.13063629 -0.38397032 0.45479047 0.12188075 -0.4138209 0.1859286 -0.35767272
-0.1304605 0.2873528 -0.29907653 0.29131505 -0.13665016 -0.06476935 0.27046588 -0.4788366
-0.31926903 -0.0011121226 0.123610154 0.3475704 -0.4519915 -0.016354376 0.47621995 -0.3361386
-0.4567679 -0.0045484602 -0.47586724 0.31600854 0.18497561 -0.106274225 -0.15882808 0.09884747
-0.42085922 -0.36259794 0.1069416 0.1968657 -0.44575036 0.3436027 0.2842565 -0.12945183
-0.15299997 -0.30015326 -0.09173612 0.4593269 0.43946365 0.43897027 0.16339973 0.09774571
-0.262656 0.48931926 -0.05522968 0.42494053 -0.42951328 0.33709383 -0.27745387 0.16684628
0.34569183 0.28788847 0.43643636 -0.4787946 0.04298977 0.20450611 0.061518498 -0.48569125
-0.48742732 -0.41319 -0.45152962 -0.15471524 0.29854497 -0.023141278 0.030308835 -0.48476171
-0.39232716 0.16702813 0.24929716 -0.03139296 -0.15317906 0.47055513 0.02336588 0.06847481
0.4267805 -0.4792481 0.070463784 0.19188936 -0.32583964 0.14770769 -0.14626458 0.123242356
0.3975541 0.36930552 0.42668888 -0.22231062 -0.14775753 0.11552955 -0.06425893 0.39694414
0.28531057 -0.4500445 0.32976532 0.18483181 -0.40709597 0.057803415 -0.11866829 0.35105106
-0.44470185 0.27772778 -0.44461817 0.18646196 -0.47335452 0.35773444 -0.40281788 -0.4646343
0.44306013 0.3997191 -0.0046883184 0.14224327 -0.25093862 0.36718056 -0.3989323 -0.32743472
0.27959737 -0.09369233 -0.4482402 -0.08847736 -0.42537856 -0.31565472 -0.061331876 -0.24745964
-0.46138978 0.46436143 0.38680223 -0.2848426 0.2280375 0.32778478 -0.16654961 0.17373863
-0.041551106 0.47108355 -0.3847433 -0.48005813 0.13637155 -0.15962404 0.050470196 -0.1531462
0.25593153 0.04144284 -0.36881864 0.07368499 -0.38010514 0.30290058 -0.019510806 -0.14154242
-0.44597775 -0.11842401 -0.3747617 -0.22465833 -0.06691657 -0.09947407 -0.025774889 -0.18617474
0.4037777 -0.15392162 -0.14302681 0.29569617 0.09528945 -0.28589323 -0.21211421 -0.36964536
0.44729295 -0.40250152 0.37579224 -0.41985607 -0.34106603 -0.072107255 -0.4980394 -0.4089911
0.39273953 0.3525442 0.4185623 -0.4873711 -0.4581136 0.48069337 0.00849525 0.4299122
-0.24774149 -0.34123144 -0.44982833 -0.0011477359 0.02399077 -0.47828332 0.19903158 0.3749409
-0.12280129 0.12520666 0.44422612 0.18931958 -0.31479147 0.12912443 -0.107931614 0.11112357
0.10981636 -0.441215 0.033428587 0.27731603 -0.4595235 0.050330542 -0.008075327 0.228798
00000000: 9ce2 e5bc f43e b4bc 8ed4 bd3e a39c ec3e
00000010: 8c8c 943e a4fe 083e 5787 773e 16fa ef3e
00000020: b234 6a3e 687e f3be c8ec 20be 0240 d9be
00000030: 4aa8 9f3d 39aa 9b3e 9dfa 973e 3ac5 9fbe
00000040: fb77 82bd e160 c9be d7c3 f33e d6b6 e33e
00000050: 642f cdbe fb66 8c3e dad1 a53d 8e68 7a3e
00000060: 920b c13e 50b0 c73e 3d35 703e e3f5 113e
00000070: dfc9 563e 0de3 7c3e 785a 1ebe 4442 a33e
00000080: f802 9ebd 9416 703e 448c bd3e 86e0 a03e
00000090: f3b5 543e 6e45 c5be 48de cbbe 98ab 303e
000000a0: d109 8ebe aa01 0b3e 7a77 dcbe 331a ac3e
000000b0: c947 aebe f1e6 acbe acf2 553e c41f f6be
000000c0: 9c50 72be 85c5 05be c297 c4be 4cda e83e
000000d0: 9d9c f93d 55e0 d3be 1164 3e3e e120 b7be
000000e0: 7097 05be e81f 933e 8f20 99be 3f27 953e
000000f0: 05ee 0bbe cba5 84bd 817a 8a3e 122a f5be
00000100: 3b77 a3be a4c4 91ba 5227 fd3d bff4 b13e
00000110: 6e6b e7be 9df9 85bc 1ad3 f33e 5c1a acbe
00000120: 7bdd e9be 400b 95bb dfa4 f3be dfcb a13e
00000130: 3f6a 3d3e 4da6 d9bd d4a3 22be 8b70 ca3d
00000140: dc7a d7be 70a6 b9be 3304 db3d 2997 493e
00000150: 6439 e4be b1ec af3e 118a 913e 058f 04be
00000160: 06ac 1cbe b0ad 99be 26e0 bbbd e52c eb3e
00000170: 6101 e13e b6c0 e03e 4252 273e e72e c83d
00000180: d97a 86be 0e88 fa3e 8438 62bd ce91 d93e
00000190: 2ae9 dbbe 9097 ac3e 6f0e 8ebe c0d9 2a3e
000001a0: 85fe b03e 1e66 933e 9674 df3e 9124 f5be
000001b0: 0b16 303d 0d6a 513e d2fa 7b3d 86ac f8be
000001c0: 1390 f9be a48d d3be e42e e7be ac6d 1ebe
000001d0: e3da 983e c792 bdbc 3c4a f83c b032 f8be
000001e0: 1bdf c8be 6c09 2b3e c147 7f3e e895 00bd
000001f0: f9da 1cbe 9aec f03e cd69 bf3c 853c 8c3d
00000200: f982 da3e 0260 f5be 514f 903d a57e 443e
00000210: 74d4 a6be af40 173e 62c6 15be 7d66 fc3d
00000220: 368c cb3e 9d15 bd3e f776 da3e 65a5 63be
00000230: c04d 17be c29a ec3d 309a 83bd 433c cb3e
00000240: 3a14 923e 3c6c e6be 00d7 a83e 8d44 3d3e
00000250: e26e d0be 46c3 6c3d 5c08 f3bd f7bc b33e
00000260: f6af e3be 5632 8e3e fea4 e3be e2ef 3e3e
00000270: 865b f2be f828 b73e 253e cebe 8ce4 edbe
00000280: c7d8 e23e fba7 cc3e 77a0 99bb 38a8 113e
00000290: 077b 80be 17ff bb3e db40 ccbe 86a5 a7be
000002a0: 6327 8f3e c4e1 bfbd bd7f e5be 9e33 b5bd
000002b0: 38cb d9be 7f9d a1be 2237 7bbd 0f66 7dbe
000002c0: 483b ecbe c8c0 ed3e f10a c63e e4d6 91be
000002d0: aa82 693e 68d3 a73e fb8b 2abe 8ae8 313e
000002e0: 7e31 2abd dd31 f13e 13fd c4be 2eca f5be
000002f0: fca4 0b3e 7c74 23be d6b9 4e3d 5cd2 1cbe
00000300: 7509 833e f8bf 293d ccd5 bcbe 28e8 963d
00000310: 249d c2be c915 9b3e 20d5 9fbc 7ff0 10be
00000320: 3257 e4be 4a88 f2bd c4e0 bfbe d50c 66be
00000330: 8e0b 89bd 10b9 cbbd dc25 d3bc 97a4 3ebe
00000340: f3bb ce3e a19d 1dbe 9f75 12be 7d65 973e
00000350: 1d27 c33d 9960 92be 7834 59be 2842 bdbe
00000360: 9503 e53e ae14 cebe d767 c03e 60f7 d6be
00000370: 35a0 aebe f8ac 93bd 05ff febe 4867 d1be
00000380: 2815 c93e ac80 b43e cc4d d63e b488 f9be
00000390: de8d eabe 711d f63e a92f 0b3c 741d dc3e
000003a0: f2af 7dbe e3b5 aebe e64f e6be a06f 96ba
000003b0: 4b88 c43c 8de1 f4be efce 4b3e 41f8 bf3e
000003c0: 3e7f fbbd 2d36 003e 9b71 e33e fedc 413e
000003d0: 592c a1be 3239 043e 400b ddbd c194 e33d
000003e0: 66e7 e03d efe6 e1be 6aec 083d 5efc 8d3e
000003f0: aa46 ebbe 6627 4e3d 604e 04bc 064a 6a3e

fc2.weight f4 [256, 256]
0.019158816 -0.038346156 0.0028284972 0.055544924 0.0021236008 0.014891624 -0.009242915 0.011648448
-0.032396503 0.00039552152 0.026926115 -0.018862689 0.0055565774 -0.029814249 0.037461925 -0.023951812
-0.047771122 0.020602033 0.021931643 -0.015419301 0.018980972 -0.00963268 0.035126336 -0.0057629836
-0.023853706 0.023598822 -0.02204048 0.015627712 0.05061256 -0.029244 -0.021873727 -0.010425941
0.02624897 -0.055534907 -0.025109626 -0.028993301 0.020850163 -0.040502604 0.038789082 -0.012598277
0.031559788 -0.036164477 0.0040375963 0.041345507 0.026816571 0.052857988 0.022780504 0.05697098
0.017351063 0.01884105 -0.031703606 0.023158792 0.018950207 0.038874295 -0.021908144 0.017588824
0.04231979 0.04043759 -0.058564015 -0.013636788 0.00557255 -0.057238523 -0.03705631 -0.004240431
-0.010224968 -0.04034055 -0.029013937 0.0036707122 -0.012090458 0.00498473 0.006858045 0.02557222
0.049561452 -0.04734248 -0.028432483 -0.0021521286 0.021749992 -0.057743773 -0.034479827 -0.054991733
0.036387585 -0.043549694 -0.00812738 0.0432218 0.024710856 0.047072623 -0.027129676 -0.005655721
0.028013425 -0.02368325 -0.0625541 0.00095613906 -0.054029565 -0.01783264 0.034217704 0.045600716
0.0058192387 -0.041624304 -0.03372346 -0.030166417 0.052062698 -0.045034513 -0.056088604 0.047504473
-0.0032510892 -0.06273931 0.011352535 -0.058112968 0.004085389 0.042945035 -0.031060686 -0.004878849
-0.030242499 -0.034196265 0.04885625 0.02424454 0.014638447 -0.027415909 0.01833329 -0.024568357
-0.060956843 -0.0037648769 0.00054022594 -0.022460677 -0.014344305 0.023724336 -0.02130698 0.05420144
-0.015110201 0.03837984 0.03009611 0.04345948 -0.037062168 -0.049406815 0.013194732 -0.049995434
0.01123447 0.01879229 -0.043079734 -0.0577463 -0.031309474 -0.047075324 0.06028179 0.044908833
0.0027310466 -0.039245814 -0.020732252 0.036250472 -0.028615616 -0.038770434 -0.0044627595 -0.024760285
-0.055463374 -0.05960246 0.056484956 -0.04663652 -0.043408718 -0.05106156 0.021125296 -0.017313309
0.014951951 -0.027069436 -0.05791823 -0.027547041 0.04657336 0.039998885 -0.016685465 0.01681199
0.01805382 0.0038998548 0.042249702 0.0020330746 0.028958373 0.05249332 -0.053687546 -0.029301483
0.04694201 -0.0015056258 0.0054716133 -0.033586174 -0.016268987 0.025348812 0.041498728 -0.066581234
0.0034496337 0.024921823 0.019711412 -0.01776466 -0.027859865 0.020266129 0.03179103 -0.04096345
-0.0502812 0.05097737 -0.05913499 0.05932518 0.047596455 0.021742966 0.044988558 -0.044335313
0.03934779 -0.0013046359 -0.008106385 0.054657906 -0.020652704 -0.02641248 0.04339612 0.033806898
0.041578386 -0.019728484 -0.02788359 -0.04750947 0.034430042 -0.010475542 -0.060765877 0.015692078
-0.024056582 -0.0063262433 -0.063603185 0.025590183 -0.060845055 0.023959592 0.0026126106 0.0017042272
-0.04787378 -0.03641922 -0.0018750343 0.038182966 0.05869603 0.032425575 0.011255019 -0.005418099
0.019773304 0.05652149 -0.052504923 -0.036024608 -0.06211226 -0.056696568 -0.007796751 -0.003723927
0.002210848 0.04880276 -0.05106328 -0.0231985 0.04829239 0.015060586 -0.005320194 0.015264595
0.01822164 0.03750793 -0.0441162 0.051088076 0.05032637 -0.0071514207 -0.010838583 -0.002961211
00000000: f3f2 9c3c dc10 1dbd 4f5e 393b 1383 633d
00000010: 1c2c 0b3b 00fc 733c 986f 17bc 22d9 3e3c
00000020: 32b2 04bd 005e cf39 2894 dc3c ed85 9abc
00000030: f313 b63b 033d f4bc ad71 193d 9736 c4bc
00000040: a7ab 43bd 98c5 a83c fda9 b33c 3ca1 7cbc
00000050: fc7d 9b3c 63d2 1dbc a2e0 0f3d 69d7 bcbb
00000060: d968 c3bc 5152 c13c 3d8e b4bc b005 803c
00000070: 1e4f 4f3d 1d91 efbc 8830 b3bc 91d1 2abc
00000080: 1408 d73c 9278 63bd b4b2 cdbc 5c83 edbc
00000090: f6cd aa3c 0fe6 25bd 4de1 1e3d 0169 4ebc
000000a0: d644 013d 3421 14bd d04d 843b e859 293d
000000b0: 6dae db3c 9e81 583d 2e9e ba3c 675a 693d
000000c0: d123 8e3c 8c58 9a3c a4db 01bd 82b7 bd3c
000000d0: 773d 9b3c a73a 1f3d b578 b3bc 7016 903c
000000e0: 8457 2d3d e3a1 253d d2e0 6fbd d66c 5fbc
000000f0: f099 b63b f172 6abd 5bc8 17bd 50f3 8abb
00000100: a086 27bc 223c 25bd a3ae edbc 5590 703b
00000110: 0e17 46bc f256 a33b 73b9 e03b d57c d13c
00000120: f300 4b3d 30ea 41bd 3deb e8bc ba0a 0dbb
00000130: 0a2d b23c bc84 6cbd b83a 0dbd 033f 61bd
00000140: 260b 153d 2a61 32bd b428 05bc 5809 313d
00000150: 6c6e ca3c 39cf 403d 0e3f debc a053 b9bb
00000160: 697c e53c 6003 c2bc 5d1c 80bd 68a5 7a3a
00000170: 1b4e 5dbd c215 92bc dd27 0c3d d1c7 3a3d
00000180: 50af be3b 3f7e 2abd 9c21 0abd 901f f7bc
00000190: b23f 553d 1c76 38bd 2abd 65bd 0d94 423d
000001a0: 3a10 55bb 787d 80bd fcff 393c dd07 6ebd
000001b0: bade 853b 22e7 2f3d fb72 febc c0de 9fbb
000001c0: 1ebf f7bc 6211 0cbd 7e1d 483d 7c9c c63c
000001d0: 19d6 6f3c 5497 e0bc b22f 963c 9443 c9bc
000001e0: e2ad 79bd 27bc 76bb f39d 0d3a 74ff b7bc
000001f0: 6004 6bbc 8a59 c23c fa8b aebc 5402 5e3d
00000200: c790 77bc 2e34 1d3d 1e8c f63c 9102 323d
00000210: 80ce 17bd cd5e 4abd b82e 583c 03c8 4cbd
00000220: c810 383c 4af2 993c 6074 30bd 6287 6cbd
00000230: 5d3e 00bd 0ed2 40bd 0aea 763d 53f2 373d
00000240: 5cfb 323b 38c0 20bd afd6 a9bc 607b 143d
00000250: 4c6b eabc bfcd 1ebd 573c 92bb 15d6 cabc
00000260: 902d 63bd b621 74bd c55c 673d f005 3fbd
00000270: 57cd 31bd ed25 51bd f50e ad3c a4d4 8dbc
00000280: 07f9 743c b9c0 ddbc aa3b 6dbd 55aa e1bc
00000290: b5c3 3e3d dfd5 233d f5af 88bc 4cb9 893c
000002a0: 9be5 933c b594 7f3b 060e 2d3d 553d 053b
000002b0: 1c3a ed3c 3c03 573d 79e7 5bbd aa09 f0bc
000002c0: 4446 403d 6b58 c5ba 384b b33b a891 09bd
000002d0: 8a46 85bc 50a8 cf3c 92fa 293d be5b 88bd
000002e0: 4013 623b da28 cc3c d479 a13c 3187 91bc
000002f0: 5f3a e4bc 2705 a63c 5037 023d 4ac9 27bd
00000300: a9f3 4dbd a6cd 503d 8837 72bd f6fe 723d
00000310: 80f4 423d 4e1e b23c ec45 383d f298 35bd
00000320: 262b 213d 5100 abba a5d0 04bc f8e0 5f3d
00000330: dc2f a9bc fc5e d8bc 21c0 313d 1a79 0a3d
00000340: 194e 2a3d a19d a1bc 206c e4bc 4a99 42bd
00000350: 8406 0d3d 9ca1 2bbc a4e5 78bd ac8c 803c
00000360: 4f12 c5bc 604c cfbb 6342 82bd 81a2 d13c
00000370: aa38 79bd e846 c43c 5538 2b3b 6060 df3a
00000380: 4c17 44bd 522c 15bd b6c3 f5ba be65 1c3d
00000390: 406b 703d aed0 043d f966 383c 4f8a b1bb
000003a0: a0fb a13c 1483 673d 670f 57bd 8a8e 13bd
000003b0: 6d69 7ebd a93a 68bd e37b ffbb 210d 74bb
000003c0: e0e3 103b 67e5 473d bb27 51bd c80a bebc
000003d0: 3ece 453d adc0 763c 0655 aebb 5a18 7a3c
000003e0: 8c45 953c eaa1 193d 30b3 34bd bb41 513d
000003f0: 0623 4e3d 7756 eabb 5094 31bc e010 42bb

fc2.bias f4 [256]
0.004598006 -0.018057548 0.014715925 -0.053776026 -0.0015568362 0.018075205 -0.008532322 -0.0027605495
0.04205207 -0.0063264775 -0.0063427463 -0.0050954623 -0.044023093 0.045247987 0.009479926 -0.041020982
0.012907842 0.03292798 0.05976845 -0.010566412 -0.04335103 0.025315173 0.06680655 0.061275378
0.033681717 0.069973566 -0.0018426739 -0.033945203 0.05588094 0.03563029 -0.045528565 0.046982545
0.0412408 -0.030022644 0.037481032 -0.0012163513 0.023126008 -0.04057572 -0.053140163 0.04722485
0.06415352 0.050005563 0.054530643 0.040346343 -0.047432832 0.008454827 -0.019810531 0.02491799
0.015395538 -0.052759394 0.009921674 0.022652475 -0.009291905 0.055498797 0.048510596 -0.036741298
0.013641369 -0.0021120168 0.028617382 0.007949115 -0.03866966 -0.05320072 -0.03555401 -0.02569262
-0.065309525 0.0048088604 -0.04015273 -0.024916181 0.008282376 -0.0180118 -0.0053179264 0.06261405
-0.043777443 0.021885231 0.012959218 0.0459041 -0.05257605 0.03866888 -0.06478868 0.049811974
0.036120795 0.0068599316 0.008624224 0.036682364 -0.051692553 -0.067704804 -0.05852817 0.008646612
-0.017258897 0.006098312 -0.0014906212 0.0018557955 0.049245264 0.010420047 0.047004834 -0.06538682
0.034729432 0.049333535 -0.020534728 0.0017964176 0.0021469018 -0.012534045 0.0269164 0.04916048
0.0056883004 0.031034056 -0.048162423 -0.0021890104 -0.017464295 -0.05042507 0.007138455 0.04536709
0.037857234 0.014821599 0.058108 0.03242761 0.003997046 -0.041094266 0.053738486 -0.04718625
-0.003043592 0.006618948 0.014702967 -0.0096784085 -0.036667295 0.011341124 -0.0361268 -0.018968768
0.02021033 0.013203921 0.017145142 0.044336833 0.038405016 -0.058771126 0.01523693 -0.015152753
-0.028524032 0.00782809 -0.03653363 -0.0026313 0.0060685063 -0.017761664 0.0068736845 -0.012549438
-0.058215834 -0.018347181 -0.0349539 -0.060073573 -0.05297725 0.025679924 -0.044321943 -0.034585517
0.025793547 -0.029445922 -0.055457763 -0.03174879 -0.020597361 0.020684427 0.035125345 0.010384045
-0.030456671 -0.025170052 -0.052529596 -0.028795328 -0.042072732 0.036821127 0.030756524 0.040722534
0.017639253 0.005692333 -0.018540401 -0.041893445 0.046737656 -0.0553575 0.072438985 0.04082605
-0.059213415 -0.032552563 -0.035882764 0.028075729 -0.036741555 -0.053652566 0.016049376 0.00010610698
-0.061173804 -0.00883335 0.05758241 -0.015847526 0.018543499 -0.0026228076 -0.022657346 -0.060564503
0.0077433023 -0.022452682 -0.019270012 -0.016250692 0.033700556 -0.004489351 -0.018736348 -0.03187772
0.03242654 -0.020522565 0.039478697 0.010826568 -0.012664288 0.050059617 -0.0077488185 -0.021573909
0.032788947 -0.015374064 0.026258167 0.01667975 -0.034628693 0.008637191 0.035259046 -0.061121356
-0.043928057 0.025664225 -0.05184207 0.04442982 -0.015323178 -0.013816378 -0.016660623 -0.04951479
-0.04514504 -0.033012994 -0.013667748 -0.017867152 0.05581774 -0.014152697 -0.0026990818 -0.055591002
-0.006423696 0.0009970224 0.040166326 -0.060295776 0.016226029 0.015997611 0.0054368004 0.04743793
-0.006332822 -0.00798429 -0.027951749 -0.015207769 0.030841589 -0.046903532 -0.012739509 -0.014084485
0.009813802 0.02560664 -0.050820827 0.04502858 -0.04097321 0.008264661 -0.018098548 0.04773582
00000000: dfaa 963b 6ced 93bc 101b 713c 4044 5cbd
00000010: c10e ccba 7412 943c 27cb 0bbc 56ea 34bb
00000020: cb3e 2c3d 574e cfbb d0d6 cfbb d6f7 a6bb
00000030: 8f51 34bd f455 393d b151 1b3c 9e05 28bd
00000040: 6a7b 533c 7ddf 063d c3cf 743d be1e 2dbc
00000050: da90 31bd c461 cf3c dfd1 883d e4fb 7a3d
00000060: d7f5 093d 4d4e 8f3d e085 f1ba 200a 0bbd
00000070: 6ae3 643d 11f1 113d 297c 3abd c570 403d
00000080: 1dec 283d 0cf2 f5bc b685 193d fa6d 9fba
00000090: c172 bd3c ba32 26bd 80a9 59bd d86e 413d
000000a0: ec62 833d a2d2 4c3d 865b 5f3d 3542 253d
000000b0: ee48 42bd 1d86 0a3c b249 a2bc d020 cc3c
000000c0: 913d 7c3c 3c1a 58bd 848e 223c af91 b93c
000000d0: 133d 18bc b552 633d 0cb3 463d 0b7e 16bd
000000e0: 0c80 5f3c c369 0abb 006f ea3c 013d 023c
000000f0: 1464 1ebd 00e9 59bd 15a1 11bd 5479 d2bc
00000100: 00c1 85bd a593 9d3b 3077 24bd 051d ccbc
00000110: ceb2 073c 7b8d 93bc 0042 aebb cc3b 803d
00000120: fa4f 33bd a848 b33c e652 543c f005 3c3d
00000130: fc59 57bd 4263 1e3d edaf 84bd a407 4c3d
00000140: 66f3 133d 47c9 e03b 9e4c 0d3c 3f40 163d
00000150: 92bb 53bd d1a8 8abd 3cbb 6fbd 85aa 0d3c
00000160: 8862 8dbc 59d4 c73b f360 c3ba 2a3e f33a
00000170: 67b5 493d d8b8 2a3c 2488 403d 86e9 85bd
00000180: 7340 0e3d f611 4a3d 7238 a8bc c675 eb3a
00000190: 09b3 0c3b 985b 4dbc c87f dc3c 805c 493d
000001a0: ec64 ba3b 223b fe3c f645 45bd 8075 0fbb
000001b0: 4811 8fbc 858a 4ebd b3e9 e93b d7d2 393d
000001c0: 3010 1b3d 4bd6 723c a702 6e3d d0d2 043d
000001d0: a7f9 823b 7652 28bd e31c 5c3d 5f46 41bd
000001e0: 0077 47bb c3e3 d83b b7e4 703c 3092 1ebc
000001f0: 7230 16bd 1fd0 393c b2f9 13bd 6464 9bbc
00000200: 2290 a53c 4255 583c f873 8c3c 8a9a 353d
00000210: 944e 1d3d feb9 70bd 51a4 793c 4143 78bc
00000220: 3bab e9bc 6441 003c 4aa4 15bd e371 2cbb
00000230: 52da c63b e980 91bc a53c e13b 289c 4dbc
00000240: ba73 6ebd d44c 96bc d22b 0fbd b50f 76bd
00000250: acfe 58bd b45e d23c ed8a 35bd 8ba9 0dbd
00000260: fd4c d33c 9338 f1bc ae27 63bd 050b 02bd
00000270: ccbb a8bc 6372 a93c 98df 0f3d d721 2a3c
00000280: 4580 f9bc 6d31 cebc 4629 57bd 2ee4 ebbc
00000290: 7554 2cbd c0d1 163d 1bf5 fb3c accc 263d
000002a0: 3280 903c c086 ba3b 0ae2 97bc 7698 2bbd
000002b0: fc6f 3f3d 8cbe 62bd e45a 943d 3739 273d
000002c0: c489 72bd d655 05bd cef9 12bd 12ff e53c
000002d0: 507e 16bd cbc2 5bbd fb79 833c c085 de38
000002e0: 6291 7abd c1b9 10bc 88db 6b3d acd2 81bc
000002f0: 89e8 973c 69e3 2bbb e69b b9bc 7c12 78bd
00000300: 87bb fd3b b0ee b7bc 25dc 9dbc 2c20 85bc
00000310: 9809 0a3d 681b 93bb f87c 99bc 3692 02bd
00000320: b1d1 043d f01e a8bc 6ab4 213d eb61 313c
00000330: e07d 4fbc 500b 4d3d cde9 fdbb c4bb b0bc
00000340: b44d 063d 80e3 7bbc 5e1b d73c f9a3 883c
00000350: d1d6 0dbd 0183 0d3c ca6b 103d 635a 7abd
00000360: e8ed 33bd c83d d23c 5a58 54bd 0bfc 353d
00000370: 110e 7bbc 175e 62bc dc7b 88bc 05d0 4abd
00000380: 01ea 38bd a238 07bd b1ee 5fbc 225e 92bc
00000390: 24a1 643d b7e0 67bc 14e3 30bb 64b3 63bd
000003a0: de7d d2bb 85ae 823a 7285 243d b4f8 76bd
000003b0: 73ec 843c 6c0d 833c 3027 b23b 464e 423d
000003c0: 9083 cfbb 8ad0 02bc 11fb e4bc 022a 79bc
000003d0: 80a7 fc3c eb1d 40bd 60b9 50bc 9dc2 66bc
000003e0: 12ca 203c 04c5 d13c 8029 50bd e36f 383d
000003f0: 86d3 27bd 8068 073c 6843 94bc a386 433d

policy.weight f4 [4, 256]
-0.022223324 -0.005389802 -0.010170691 0.044514738 -0.0013750056 0.030037144 -0.01401975 0.05435498
0.030417118 -0.031501237 -0.02671232 -0.008247529 -0.04411926 -0.038843278 -0.038962383 0.002004779
0.059129063 -0.021265801 0.03151385 0.06315417 0.011555621 0.008613011 0.01793572 0.056014977
-0.0022113838 0.06076789 0.026849896 0.04880622 0.031189105 0.005240925 0.058236107 -0.04022658
0.054683547 -0.022866406 0.0013215318 0.002394917 0.059246715 -0.009415438 0.008987035 0.0010288275
0.029936174 0.05419395 0.033784635 0.030066028 0.057264686 0.009812164 0.021702582 -0.044871494
0.049165122 -0.015470304 -0.037563898 0.0010409392 0.01566628 0.06692391 0.044496607 0.0030643018
-0.03884193 -0.06657425 -0.017985404 0.051985644 0.038713254 -0.01597401 -0.004501641 -0.0459014
-0.015470047 0.014582274 -0.0003313927 0.05516103 0.05728822 -0.036369044 -0.047742054 0.047482166
0.03432803 0.030380279 -0.028791795 -0.065727115 -0.023599528 -0.0044901143 -0.031048408 -0.015758218
0.017469442 0.06086347 -0.006111278 0.058104172 -0.030315503 0.022308173 0.05002174 0.056707054
0.045854375 0.0018381499 0.0033688713 0.0088826185 -0.01943132 -0.0036231652 0.021575892 0.02977751
-0.038604766 0.046919137 -0.019513326 -0.03291517 -0.03135874 -0.040916994 0.020719483 -0.033207715
-0.009690162 -0.03122072 0.025872748 -0.00405398 0.0044601858 -0.017272988 -0.014433135 0.032097504
-0.017934177 -0.042831924 0.0027253714 -0.04849402 -0.038481127 -0.025977425 0.03400316 0.0042429273
-0.05012215 0.05407174 -0.04788735 0.004989825 0.053256065 -0.00710394 -0.035619196 -0.0016498193
0.0064035277 -0.053598166 0.010392711 -0.03206638 0.016114771 -0.010331473 -0.02069432 0.018159967
0.007810592 -0.023101503 -0.04980136 -0.054362055 0.054625988 0.017734863 0.01569862 -0.010770537
-0.050127223 -0.0126854405 0.030575633 -0.036089577 0.032371238 -0.026294827 -0.04037589 0.06278593
-0.03524009 0.0003655609 0.0062907413 -0.0062660165 0.02032464 0.03176946 -0.01987549 0.062447794
-0.03611707 -0.038067028 0.026810057 -0.02169988 0.013757277 0.061074335 0.04024756 0.034606103
0.02493235 -0.022326656 -0.016824096 -0.012279406 0.0344896 0.020249613 0.04135909 -0.0490337
0.038290873 0.0073329397 -0.04203306 -0.060109917 -0.040477276 0.023127118 -0.007334467 0.032450464
0.006384649 0.019667188 0.06326612 0.059540603 0.036725916 0.028498834 0.04034542 -0.03598325
-0.048825298 0.011689968 -0.0008767273 0.02190476 0.059644118 -0.010561549 -0.042482086 -0.03832316
0.038136035 0.055928938 0.03877091 -0.035167575 -0.038454458 0.043843664 -0.024053534 -0.057838384
0.059157137 -0.05982998 -0.031936705 0.01432435 0.0598513 -0.03008163 0.009856958 -0.024106925
0.018302493 -0.021370063 -0.018571474 -0.034626365 -0.024886888 -0.007321404 0.057229865 0.021287847
-0.052212507 -0.0028525218 0.06425796 0.020008955 0.063204914 -0.049536046 -0.029259888 -0.053849738
0.049392574 0.044424437 0.04789046 0.025023254 -0.0036710743 0.0076412857 0.0068409815 -0.02415311
-0.0321764 -0.053592898 0.05442389 0.021316428 -0.038642965 -0.013380182 0.0061047594 0.040191997
0.016482012 -0.013062678 0.014329719 0.014876099 0.028494777 0.031733185 0.03788565 0.027541565
00000000: b00d b6bc f09c b0bb f8a2 26bc 1655 363d
00000010: 8839 b4ba 7510 f63c 18b3 65bc 54a3 5e3d
00000020: 522d f93c 7107 01bd ccd3 dabc a520 07bc
00000030: 66b6 34bd 211a 1fbd 0597 1fbd 9c62 033b
00000040: 5131 723d 9e35 aebc ab14 013d f956 813d
00000050: ca53 3d3c 961d 0d3c eeed 923c f66f 653d
00000060: ddec 10bb c0e7 783d 50f4 db3c 08e9 473d
00000070: 4b80 ff3c 11bc ab3b fc88 6e3d a0c4 24bd
00000080: dbfb 5f3d 5452 bbbc 4037 ad3a 0af4 1c3b
00000090: afac 723d 3643 1abc 5b3e 133c b9d9 863a
000000a0: b53c f53c 7afa 5d3d c261 0a3d 084d f63c
000000b0: 608e 6a3d 33c3 203c 9dc9 b13c 2ccb 37bd
000000c0: 5e61 493d 2877 7dbc 9adc 19bd 2070 883a
000000d0: 9256 803c 670f 893d 1342 363d 74d2 483b
000000e0: b718 1fbd 1558 88bd 2056 93bc e6ee 543d
000000f0: ca91 1e3d eddb 82bc 8082 93bb 1b03 3cbd
00000100: 1476 7dbc 7dea 6e3c c6be adb9 88f0 613d
00000110: 0da7 6a3d b5f7 14bd 2c8d 43bd a97c 423d
00000120: 8c9b 0c3d 10e0 f83c c5dc ebbc f09b 86bd
00000130: cc53 c1bc cf21 93bb 3b59 febc 6117 81bc
00000140: 131c 8f3c f94b 793d 1e41 c8bb a4fe 6d3d
00000150: 3858 f8bc a1bf b63c 99e3 4c3d a845 683d
00000160: ccd1 3b3d 13ee f03a 48c8 5c3b 6788 113c
00000170: 6e2e 9fbc a072 6dbb edbf b03c f7ef f33c
00000180: 0820 1ebd 482e 403d 69da 9fbc 0fd2 06bd
00000190: 0672 00bd 9498 27bd e8bb a93c d004 08bd
000001a0: 7cc3 1ebc 98c2 ffbc 16f3 d33c 40d7 84bb
000001b0: c026 923b 1580 8dbc f578 6cbc ac78 033d
000001c0: b2ea 92bc 8770 2fbd 259c 323b aaa1 46bd
000001d0: 639e 1dbd 9cce d4bc e646 0b3d 4108 8b3b
000001e0: e24c 4dbd 547a 5d3d 8725 44bd b081 a33b
000001f0: 0823 5a3d 2bc8 e8bb 6fe5 11bd c03e d8ba
00000200: afd4 d13b c089 5bbd 3046 2a3c 0958 03bd
00000210: 2003 843c 5745 29bc 2287 a9bc 36c4 943c
00000220: ffef ff3b 5d3f bdbc 83fc 4bbd bfaa 5ebd
00000230: 80bf 5f3d b448 913c 649a 803c e876 30bc
00000240: 3452 4dbd 98d6 4fbc c079 fa3c aad2 13bd
00000250: b497 043d 4068 d7bc 3061 25bd e995 803d
00000260: ea57 10bd c1a8 bf39 9022 ce3b 2853 cdbb
00000270: dc7f a63c b120 023d ecd1 a2bc 42c9 7f3d
00000280: 7eef 13bd 2cec 1bbd c4a0 db3c f2c3 b1bc
00000290: 3466 613c 1529 7a3d a0da 243d 21bf 0d3d
000002a0: ed3e cc3c 64e6 b6bc b0d2 89bc 902f 49bc
000002b0: f844 0d3d 84e2 a53c 2668 293d 90d7 48bd
000002c0: e4d6 1c3d 2849 f03b dc2a 2cbd d135 76bd
000002d0: 80cb 25bd 1575 bd3c f855 f0bb c7ea 043d
000002e0: 5136 d13b 151d a13c ab91 813d d9e0 733d
000002f0: ea6d 163d 6376 e93c 3d41 253d 2c63 13bd
00000300: 09fd 47bd 4887 3f3c 2cd4 65ba 9c71 b33c
00000310: 644d 743d 590a 2dbc b201 2ebd bff8 1cbd
00000320: 8834 1c3d be15 653d 3fce 1e3d e00b 10bd
00000330: 6c82 1dbd 6a95 333d eb0b c5bc f1e7 6cbd
00000340: c14e 723d 4810 75bd 10d0 02bd aeb0 6a3c
00000350: a326 753d c06d f6bc 147f 213c e37b c5bc
00000360: 1cef 953c 4510 afbc 3423 98bc 60d4 0dbd
00000370: 96df cbbc 63e8 efbb dd69 6a3d da63 ae3c
00000380: c8dc 55bd 60f1 3abb ad99 833d d2e9 a33c
00000390: 9471 813d 4fe6 4abd 6fb2 efbc 8b91 5cbd
000003a0: de4f 4a3d 66f6 353d c928 443d 91fd cc3c
000003b0: 6896 70bb c063 fa3b 502a e03b bedc c5bc
000003c0: 67cb 03bd 3a84 5bbd 96eb 5e3d ca9f ae3c
000003d0: 1648 1ebd 8d38 5bbc 6f0a c83b 5da0 243d
000003e0: 4905 873c d804 56bc 33c7 6a3c e2ba 733c
000003f0: e16d e93c a8fa 013d fc2d 1b3d d99e e13c

policy.bias f4 [4]
-0.045211606 0.02953758 -0.045899417 -0.04645233
00000000: ce2f 39bd ccf8 f13c 0701 3cbd cc44 3ebd
