models/model_DQN.bin (torch, 275036 bytes, 6 tensors)

linear1.weight f4 [256, 4]
000000 d7 e3 52 bf 49 f0 4d bf 8f f4 7a 3e 23 81 dd bf
       -0.82378906 -0.8044477 0.24507354 -1.7305034
000010 04 1d d0 bf 52 11 3d c0 97 29 dc bf 33 0d a2 bf
       -1.6258855 -2.9541821 -1.7200192 -1.2660278
000020 d9 1c 8c be a3 5c 0e bf c0 1f db be 8a 41 c9 3a
       -0.2736576 -0.556101 -0.4279766 0.0015354615
000030 38 64 c3 bd 48 ec ae bd 30 63 9f bd 90 91 b1 bd
       -0.095405996 -0.08541161 -0.077825904 -0.08670342
000040 9b af cd be 82 80 b5 be b9 6b 20 be eb f0 ae bd
       -0.4017304 -0.35449606 -0.15666093 -0.08542045
000050 ee 6d b9 bf 7e c5 10 c0 67 0d 0b bf a4 3d 4c bf
       -1.4486673 -2.262054 -0.54317325 -0.79781556
000060 c0 26 58 be be b4 cc be e2 44 fd be 86 e1 ae be
       -0.21108532 -0.39981645 -0.49466616 -0.34156436
000070 a4 c2 5f be ea 90 95 be 3a 89 ec be ec a0 8b be
       -0.21851593 -0.29212123 -0.46198446 -0.2727121
000080 ca 62 d0 bd 70 7d 46 bd 1b 41 40 bf e0 ba ed bd
       -0.101750925 -0.04845947 -0.75099343 -0.11607909
000090 8a 68 cf 3e a2 72 3f c0 4a 85 08 c0 40 15 93 bf
       0.40509444 -2.9913716 -2.1331353 -1.149086
0000a0 84 83 7b bf 0c e9 8e bf d7 3a 03 c0 7e 34 c1 bf
       -0.9824755 -1.116487 -2.0504663 -1.5094144
0000b0 ee 77 a3 be 00 94 2c 3b 98 51 e6 be c0 69 75 be
       -0.31927437 0.0026333332 -0.44984126 -0.23966122
0000c0 db 89 41 bd 20 1b f3 be bb bb 6e bf 8f 69 71 be
       -0.04725061 -0.47481632 -0.93255204 -0.23575424
0000d0 fc ef bb bd 37 56 a4 be 61 e8 7a bf bc a8 97 bd
       -0.09176633 -0.32097027 -0.9801083 -0.074052304
0000e0 02 b7 b1 be b9 a2 52 be 21 22 47 bf e3 36 4e 3c
       -0.34709936 -0.20569886 -0.7778645 0.012586328
0000f0 4c b5 02 c0 dd b2 fe bf 58 06 0a c0 4a 55 82 3c
       -2.0423155 -1.9898335 -2.1566372 0.01590981
000100 91 8f 46 bf fb 1e 63 bf 22 fd 8e bf d9 b5 2c be
       -0.77562815 -0.8871915 -1.1171 -0.16866244
000110 4c f5 48 be cb b4 64 bd 6a 1a 59 be bb df 05 bf
       -0.19624823 -0.05583648 -0.21201482 -0.5229451
000120 60 cc 76 bd ad f0 3c bf 6a dc 01 bf 30 10 ac bd
       -0.0602535 -0.7380474 -0.5072695 -0.08401525
000130 fc 85 93 bf c7 4a de bd af d4 24 bf 0e 16 8a bc
       -1.1525264 -0.108541064 -0.6438703 -0.01685622
000140 dd ac ae 40 b4 c5 59 c0 89 e3 94 c0 c0 4d d1 3f
       5.4586015 -3.4026918 -4.6527753 1.6351852
000150 68 63 4f 3f f3 6b 08 c0 94 d1 8c bf c8 6b 8e 3e
       0.81011057 -2.1315887 -1.1001458 0.27816606
000160 80 96 fd bd 0c d1 67 be 93 7c 6d be 46 d3 c2 be
       -0.12382221 -0.22638339 -0.23192053 -0.38051814
000170 30 f3 5c be 85 c7 c5 be e3 b1 ac be 9f e7 9f be
       -0.21577144 -0.38628784 -0.33729467 -0.312314
000180 48 ae 33 be 32 32 97 be 71 af 24 bf a8 98 a0 be
       -0.17546952 -0.29530483 -0.643302 -0.31366467
000190 7f c6 43 bd 0e ad 56 bf 2a 01 fe be 09 8e f0 bf
       -0.047796723 -0.8385781 -0.49610263 -1.8793346
0001a0 a3 2e 2a bf d3 9d 83 bf de 44 95 bf 43 ff ec be
       -0.6647741 -1.0282539 -1.1661642 -0.462885
0001b0 29 c6 32 c0 2f 77 4b c0 34 c1 00 c0 1a ba a8 bf
       -2.7933447 -3.1791494 -2.0117922 -1.3181794
0001c0 fe 58 d9 be 80 25 f0 be 06 fd b8 be 83 6f da bf
       -0.42450708 -0.4690361 -0.36130542 -1.7065281
0001d0 3c 79 41 be 88 a0 a7 be 0e b0 04 be 9c f9 43 be
       -0.18893903 -0.32739663 -0.12957785 -0.19138187
0001e0 0f 20 03 bd 2d e6 4d 40 2e 7d 80 c0 91 8e 1a 3f
       -0.032012995 3.2171738 -4.0152807 0.6037379
0001f0 2a 77 e0 be 82 db 90 be 31 38 f7 be 6e 53 9c be
       -0.43840915 -0.2829247 -0.48285058 -0.30532402
000200 3c 86 56 bf 08 66 6f be 0a 94 64 bf 77 fe 11 bf
       -0.83798575 -0.23378766 -0.8928839 -0.5702891
000210 5f 62 2d bf 60 24 a8 bd bb 48 84 bf 24 92 f1 be
       -0.6772823 -0.08210063 -1.0334696 -0.4718181
000220 4e de 95 bf 1e 84 85 be d9 91 0b bf e6 fc 8f bf
       -1.1708467 -0.2607736 -0.5451942 -1.1249053
000230 2a 4b e0 be 6c 5f dd be c8 c0 0f bf 0a 25 be be
       -0.43807346 -0.43236864 -0.56153536 -0.37137634
000240 b1 e9 b3 bf 9a 49 f5 bf 06 2a 6b bf af 0a 81 bf
       -1.4055692 -1.9163086 -0.91861 -1.0081385
000250 2a 9a 90 be 14 e8 01 c0 2d 1c 61 c0 d7 4f f4 bf
       -0.28242618 -2.02979 -3.5173447 -1.9086865
000260 ff c2 a9 bf 9b b5 0f c0 a4 b9 75 c0 e3 86 ad bf
       -1.3262633 -2.2454593 -3.8394556 -1.3556789
000270 90 4a 96 bd fe 42 89 be 90 22 61 bd 84 54 a9 bd
       -0.073384404 -0.26808923 -0.054964602 -0.08268073
000280 f8 7d e6 bd 38 b1 d5 bf 44 01 14 be 30 8b 08 be
       -0.112544954 -1.6694708 -0.14453608 -0.13334346
000290 08 fd 72 be 68 97 36 be 17 91 56 be 58 ce ca bd
       -0.23729336 -0.17831194 -0.20953785 -0.09902638
0002a0 be d3 c0 be 4c f6 41 be 90 ab f7 be f0 a2 66 bd
       -0.37661546 -0.18941611 -0.4837308 -0.056307733
0002b0 e8 58 b7 be 1e 1c b4 be 80 c8 bb bd 5e e3 ec bf
       -0.35810018 -0.35177702 -0.09169102 -1.8506887
0002c0 43 2d d5 be 44 a0 c7 be 25 c0 50 bf 44 8a ef be
       -0.41636094 -0.3898946 -0.8154319 -0.46785176
0002d0 d0 e2 aa bd a9 9f 87 be 0f 8b bb be 17 9c ad be
       -0.08344042 -0.26489 -0.3662953 -0.3390815
0002e0 30 09 42 be 4e 30 d9 be ec 60 d3 be f0 cb a0 bd
       -0.18948817 -0.42419666 -0.41284883 -0.07851398
0002f0 eb 6b b7 bf b4 bd d5 be 09 a2 69 be 04 d3 f9 be
       -1.4329809 -0.41746294 -0.22815718 -0.48793805
000300 ac b2 8b c0 38 ae 7b c0 59 70 01 c1 c5 4a 01 40
       -4.3655605 -3.9325085 -8.089929 2.0201886
000310 ea 6c ca be d7 b1 a5 bf ba 64 5b bf 60 59 c1 be
       -0.3953622 -1.2944897 -0.8570057 -0.377635
000320 c0 1e 1a bc 06 ef 06 bf de e2 ff be 58 65 ed bd
       -0.009406745 -0.5270847 -0.49977773 -0.115915954
000330 b0 0c 02 bd 34 a2 59 bf 18 fe e3 be 64 cb 31 be
       -0.03175038 -0.8501313 -0.44529796 -0.17362744
000340 22 ef eb be 68 21 f4 bd b0 8d 3a bd 04 a4 06 be
       -0.4608088 -0.11920434 -0.04554528 -0.13148504
000350 c9 82 95 be 2e 0e f2 be f2 7a 24 bf be e3 c1 be
       -0.29201344 -0.47276443 -0.642501 -0.37869066
000360 35 cc 24 3d 52 a4 f0 c0 85 38 d4 c0 21 8d de 3f
       0.04023381 -7.5200586 -6.6318994 1.7386819
000370 a2 73 5d be bd f6 1f bf 0b dc 32 bf 30 4e e8 be
       -0.21626142 -0.6248587 -0.6986701 -0.45372152
000380 a8 b6 66 be 26 aa 8b be ce cc d2 be d8 84 fc be
       -0.22530615 -0.2727825 -0.4117188 -0.49320102
000390 00 c4 c8 bd 5b df 33 be 9f 44 61 bf b4 a2 59 be
       -0.09803009 -0.17565672 -0.8799533 -0.21253473
0003a0 80 0b fe be 60 67 4f 3d 05 2f b2 be bc ec ef be
       -0.4961815 0.050635695 -0.34801498 -0.46860301
0003b0 b9 19 b0 bc d4 c2 7d be 12 91 6e bf 96 ed 2a bf
       -0.02149664 -0.24781352 -0.9319011 -0.6676878
0003c0 76 29 bc be 40 44 8a bc 40 85 74 bc 00 8c aa bb
       -0.36750382 -0.016878247 -0.014924347 -0.0052046776
0003d0 e9 8d f1 bd b0 75 69 bf 06 5d b1 bf 50 72 8b bf
       -0.11794645 -0.911952 -1.3856514 -1.089426
0003e0 e3 bf 87 bf 85 ec 4a be ee a6 89 be 56 ba 8d bf
       -1.0605434 -0.19816788 -0.2688517 -1.107249
0003f0 62 f2 50 bf 2c 9a 56 be 2a 1e 8e bf 65 70 a2 be
       -0.81619847 -0.2095725 -1.1102955 -0.31726375

linear1.bias f4 [256]
000000 25 45 46 c0 6a 18 f6 bf 24 a1 4d bf c3 4f ea be
       -3.0979702 -1.92262 -0.80324006 -0.45763978
000010 f2 d3 98 bf d5 61 07 c0 c6 eb c6 be 57 56 32 bf
       -1.193968 -2.1153462 -0.38851756 -0.69662994
000020 21 76 91 bf 86 1b 9b c0 b3 36 df bf 08 72 8e bd
       -1.1364175 -4.84711 -1.7438568 -0.069553435
000030 bb aa 2d c0 03 8e 48 c0 57 36 87 bf bc 98 3d bf
       -2.7135456 -3.1336677 -1.0563458 -0.7406118
000040 1c 63 de bf 21 28 0c bf 17 6c 83 be bf 16 67 bf
       -1.7373996 -0.5474873 -0.25668404 -0.9026908
000050 f0 50 ab c1 2a 29 25 c1 46 6f 42 bf c8 16 bc be
       -21.41452 -10.32255 -0.7595104 -0.3673613
000060 61 4e 42 bf c0 75 26 c0 43 6d d0 bf 96 bd 56 c0
       -0.75900847 -2.600937 -1.6283344 -3.3553214
000070 56 12 1e c0 46 bc 65 bf d1 99 cb c1 ec 71 34 bf
       -2.4698691 -0.8974041 -25.450106 -0.7048633
000080 50 d2 58 bf bd 57 b3 bf 82 4c 8f bf 41 95 41 bf
       -0.8469591 -1.4011151 -1.1195223 -0.7561837
000090 db 0d bc bf b6 dc 08 c0 b8 e4 1a c0 17 43 61 bf
       -1.4691728 -2.1384711 -2.42021 -0.87992996
0000a0 74 37 f1 bf 8e 0e 7e bf ab a3 34 bf 88 28 19 c0
       -1.8845048 -0.9924096 -0.7056224 -2.3930988
0000b0 09 91 bf be 87 51 f0 be 95 67 74 bf ee f7 22 c0
       -0.3741534 -0.469372 -0.95470554 -2.5463824
0000c0 14 2f 2d c1 11 34 fc bf 63 40 d9 be f0 cd 63 be
       -10.823994 -1.970339 -0.42431936 -0.22246528
0000d0 5e 80 3c bf f1 a0 f6 be c3 49 44 c1 59 22 f6 be
       -0.7363337 -0.48169664 -12.268008 -0.4807308
0000e0 68 d4 18 be b7 ea e1 be 82 54 85 bf 58 ae f7 be
       -0.14924777 -0.44124386 -1.0416415 -0.483752
0000f0 30 64 b0 be dd a4 64 bf 03 77 52 bf bf 55 bf bf
       -0.34451437 -0.8931406 -0.8221285 -1.4948043
000100 41 25 bb bf ef ca 96 bf ad 62 07 bf 8a 7e ce be
       -1.4620744 -1.178068 -0.5288494 -0.40330917
000110 98 16 85 bf a5 67 b5 c1 72 0a 42 bf cd 2a 76 40
       -1.039752 -22.675608 -0.7579719 3.8463624
000120 51 20 3b bf 3a bd 9b bf a7 f6 d9 be ad 7f 95 bf
       -0.73096186 -1.2167122 -0.42570993 -1.1679589
000130 50 75 80 bf 2b dd 61 bf cc 25 5e c0 65 d3 a9 be
       -1.0035801 -0.882281 -3.471057 -0.33169094
000140 70 8d 5f c0 64 e9 a9 be 9e ad ae be 35 4f 9e bf
       -3.4930077 -0.33185875 -0.34116834 -1.2367922
000150 8b a8 35 bf 62 b3 ea be 4d fa f0 bf 8d 01 85 bf
       -0.709603 -0.45839983 -1.8826386 -1.0391098
000160 b2 8b 29 c1 35 c1 32 bf fe 13 a8 bf 11 55 28 41
       -10.596605 -0.6982606 -1.3131101 10.520768
000170 0c 72 4a c0 58 b4 95 bf 1e e8 ba bf 12 0e 80 bf
       -3.1632109 -1.1695662 -1.4602087 -1.0004294
000180 01 8d 8a bf 1d 6b a3 bf 6e 30 ae c0 22 de 04 bf
       -1.0824281 -1.2767063 -5.443412 -0.5190145
000190 61 51 0f c0 32 93 09 c0 03 18 4b c0 47 4e 97 bf
       -2.239342 -2.149609 -3.1733406 -1.1820763
0001a0 05 93 dd be c3 8f 39 40 77 78 ba bf 1e 31 39 bf
       -0.4327623 2.8993995 -1.4568013 -0.7234057
0001b0 eb 92 07 bf e6 a6 a0 be 72 fd 70 c0 3b ae ae c1
       -0.52958554 -0.31377333 -3.765469 -21.835073
0001c0 ae 3a 7f c1 02 8b 8f bf 44 67 33 be 35 25 20 bf
       -15.951826 -1.1214297 -0.17519861 -0.62556773
0001d0 2f 13 ce bf 39 66 72 bf 6e 70 b1 bf 47 e1 37 bf
       -1.6099604 -0.9468723 -1.3862436 -0.7182812
0001e0 21 bc b9 c0 b8 71 5a be 57 4a 84 c1 01 93 79 bf
       -5.804215 -0.21332443 -16.536299 -0.97489935
0001f0 14 8f 1b bf f2 7f 73 bf 24 a6 3b c0 c6 34 47 c0
       -0.60765195 -0.95117104 -2.9320154 -3.112596
000200 c1 00 17 bf a3 87 5f bf c6 6b 83 40 b4 8f 04 be
       -0.58985525 -0.8731634 4.106906 -0.12945443
000210 d4 21 a7 be 85 bc 10 c0 26 19 cd be 84 01 01 c0
       -0.32642996 -2.2615063 -0.4005825 -2.0157175
000220 9a fb c0 be f2 a6 69 c0 20 79 2b c0 6c 39 26 bf
       -0.37691957 -3.6508145 -2.679268 -0.6493137
000230 6b a3 e6 be a5 ca 1f c0 00 65 13 c0 1f 14 f8 be
       -0.45046553 -2.4967434 -2.3030396 -0.4845285
000240 d9 9b 96 c1 9f e0 cd be c2 c3 2a bf a7 da 09 bf
       -18.826097 -0.40210435 -0.6670495 -0.5384926
000250 3b e0 38 bf 3b bc 03 bf 86 d9 8d c0 28 b2 20 c0
       -0.7221715 -0.5145909 -4.432803 -2.5108738
000260 cd 3d 97 bf 80 40 93 bf 7f 82 c0 c1 33 c3 0c bf
       -1.1815735 -1.1504059 -24.063719 -0.5498535
000270 f1 7c fd bf be cf ef c0 c8 f7 4e bf 6d e4 23 bf
       -1.9803754 -7.494109 -0.80846834 -0.64020425
000280 7a 69 2f bf 95 57 79 bf ff 61 8a c0 51 cc bc be
       -0.6852032 -0.97399265 -4.3244624 -0.3687463
000290 fe 4b 8d bf e5 14 17 bf e6 e6 26 c1 18 98 95 bf
       -1.1038816 -0.5901626 -10.431372 -1.168704
0002a0 65 b8 f8 40 dc 74 08 c0 c6 f0 82 be 10 4d 8a c0
       7.772509 -2.1321325 -0.2557432 -4.321907
0002b0 12 56 ed be 75 f6 68 bf f7 e4 71 bf ea 86 5a bf
       -0.4635473 -0.91001064 -0.9449 -0.8536211
0002c0 25 68 ac bf 01 83 fb be b4 73 8d bf 43 01 14 40
       -1.3469282 -0.49123386 -1.1050935 2.312577
0002d0 cc 53 ae be 6a 08 bf be 3f 73 1b bf b5 1a b2 bf
       -0.34048307 -0.37311107 -0.60722727 -1.39144
0002e0 e8 63 8b c0 8e 37 13 bf 8f 36 12 c0 4c c0 4d bf
       -4.3559456 -0.57506645 -2.28458 -0.80371547
0002f0 04 a2 03 c1 f9 0c a0 bf 5d 8c 14 bf 9f de 8a c0
       -8.227055 -1.2503959 -0.5802668 -4.3396754
000300 bf 73 56 bf e9 5c 1b c0 4c 9d f3 be f3 78 21 c0
       -0.83770365 -2.4275458 -0.47580945 -2.5230072
000310 45 27 e7 be d4 fd 82 c0 06 5b fd bf 5b 35 b1 c0
       -0.45147148 -4.093485 -1.9793403 -5.537763
000320 d7 4e 42 c0 2c e4 ef be e2 6b ab c1 37 6f b1 c0
       -3.036062 -0.4685377 -21.427677 -5.544826
000330 b8 15 0a c0 e8 ce 33 be 58 5b 77 41 a7 dd 45 bf
       -2.1575756 -0.17559397 15.459801 -0.7729134
000340 31 e1 65 bf c0 0b b1 be 02 96 34 bf 92 4f a9 bf
       -0.8979674 -0.34579277 -0.70541394 -1.3227408
000350 50 f8 03 bf ac 80 8b bf 90 1b 41 bf b8 4a 61 be
       -0.5155077 -1.0898643 -0.7543268 -0.22001159
000360 e0 a7 64 c0 fb 99 4e bf 90 16 5a bf 28 aa e0 be
       -3.5727463 -0.80703706 -0.8519068 -0.4387982
000370 44 07 36 bf d8 9f 91 bf 5c 7d 5e bf 76 f1 7c bf
       -0.71104836 -1.1376905 -0.86910033 -0.9880594
000380 44 a8 e4 40 1c f1 20 c0 ff 8d 6c c0 08 ed 87 bd
       7.14554 -2.5147161 -3.6961668 -0.06637007
000390 52 8e 1d c0 47 a3 69 c1 e7 33 81 bf 10 56 91 bf
       -2.4618115 -14.602363 -1.0093964 -1.1354389
0003a0 a4 9e d9 be f0 e6 1f c0 0f 3e 48 bf 7a f7 12 c0
       -0.42503846 -2.4984703 -0.78219694 -2.2963548
0003b0 ed 48 17 bf c6 5b 77 c0 b8 32 db be 8b 7f 20 bf
       -0.5909565 -3.8649764 -0.42812133 -0.62694615
0003c0 8c e8 18 c0 cd d9 0c bf 5c 62 c8 40 98 20 21 bf
       -2.3891935 -0.5501984 6.2620068 -0.6294036
0003d0 8d e9 80 bf 0a f3 a6 c1 ab 6e 2d bf b7 87 52 bf
       -1.0071274 -20.868671 -0.6774699 -0.82238334
0003e0 2f 3a 3b bf fc 1e e0 bf 80 bc 8f be 04 88 e6 c1
       -0.73135656 -1.7509456 -0.28073502 -28.816414
0003f0 ac bf f0 bf 04 d4 96 bf 66 d2 3d bf fb 50 8d bf
       -1.8808494 -1.1783452 -0.7414917 -1.1040338

linear2.weight f4 [256, 256]
000000 c1 21 14 be 1e 6e 4b bd b8 48 d3 bc 9e dd d4 be
       -0.14466001 -0.049665563 -0.025791511 -0.4157533
000010 97 d0 f7 be d0 d4 5d 3f ee ef e3 be 2b cd b7 be
       -0.4840133 0.8665285 -0.4451899 -0.35898718
000020 9f 64 00 3e 36 9a de be 1e 9e 53 3f 80 36 55 3d
       0.12538384 -0.4347703 0.8266314 0.05205393
000030 5b 42 c1 be 2c a5 92 3c 6e fb 4b bd 93 0e c4 be
       -0.37745938 0.017901026 -0.04980033 -0.3829237
000040 88 6d e6 be fc 4b 08 bf 44 dd cf be a3 3e ea be
       -0.4500544 -0.5324094 -0.405985 -0.45750913
000050 bc 9a 1d c0 56 13 6c bf a6 4d 41 3d 50 51 ee be
       -2.4625692 -0.92217004 0.047193192 -0.46546412
000060 7b c4 af be 04 95 f9 bc f5 0f e8 3d 7a 31 f6 3d
       -0.3432959 -0.030466564 0.113311686 0.12021156
000070 88 0b ff be b8 32 ad bc 9c 22 0a bf 40 cc 38 3d
       -0.49813485 -0.021142349 -0.5395906 0.045116663
000080 40 b9 56 3b 22 18 ec 3e 75 b1 f5 be 06 16 2b bd
       0.0032764226 0.46112162 -0.4798695 -0.04176905
000090 12 0f 6f 3f 9e c9 f6 be 64 cf e4 3e d7 34 02 bf
       0.9338237 -0.48200697 0.44689476 -0.5086188
0000a0 f8 26 4c bc a4 93 2c bd a4 af 0c bd 80 c5 e9 3c
       -0.012460463 -0.04213299 -0.03434719 0.028536558
0000b0 62 f6 1e bd 57 47 f1 be e4 f3 d3 3e be db 0d bd
       -0.038809188 -0.4712474 0.4139701 -0.03463339
0000c0 05 ce a6 3f 73 13 13 bf de 01 de be 18 80 df be
       1.3031622 -0.5745155 -0.433608 -0.43652415
0000d0 eb bc 7c 3e 2a 47 e3 be 2e fd 37 3e 24 6d e8 be
       0.24681441 -0.4439023 0.17967674 -0.45395768
0000e0 c8 91 d6 3c fb 12 98 be 67 a3 14 3f ea 32 e8 be
       0.02619256 -0.2970198 0.5806183 -0.45351344
0000f0 38 62 cb 3c 29 bc 1e bf a9 dd 07 bf b8 31 aa 3e
       0.024827108 -0.6200586 -0.530726 0.33241057
000100 42 2b 01 bf 6e 73 e0 be 95 bc d4 be 0a 28 f6 be
       -0.5045663 -0.43838066 -0.41550127 -0.48077422
000110 a0 3f b4 bc d2 b6 99 bf 9c c4 07 bf 26 69 74 40
       -0.022002995 -1.2008917 -0.5303438 3.8189178
000120 41 fd fc 3e 38 e4 04 bc b6 7c 12 bf e2 c6 d8 be
       0.49411967 -0.008111052 -0.57221544 -0.42339236
000130 c3 54 f4 be 56 3f 0c bf 13 20 0b bf 31 31 e9 be
       -0.47720918 -0.5478414 -0.54345816 -0.45545343
000140 67 55 56 3f 68 1f 87 3c 98 38 e3 be f8 91 25 3c
       0.83724064 0.016494468 -0.44379115 0.010105602
000150 ee 6d 30 3e af 54 a4 be df 1c e5 be 22 ed 3f 3d
       0.17229435 -0.32095858 -0.4474859 0.046857007
000160 10 7f b7 bf 12 05 af be 80 17 10 ba 87 e5 62 c0
       -1.4335651 -0.34183556 -0.0005496666 -3.5452592
000170 be 22 68 bd 80 c8 a4 bb 86 94 02 3f 3e c8 63 bd
       -0.056673758 -0.0050287843 0.5100788 -0.055610888
000180 53 15 83 be b7 cf 0b 3f 00 6d 1d 3d bb 44 51 be
       -0.25602207 0.5461382 0.03843403 -0.20436375
000190 42 f0 73 3d b6 3c cd be 0c 67 65 bd c3 15 91 3e
       0.0595553 -0.4008538 -0.056006476 0.28336915
0001a0 44 d1 bf be bf dd 50 c1 d4 63 f2 be 41 9d 0a bf
       -0.37464345 -13.054137 -0.47341788 -0.541462
0001b0 b4 90 ec be 00 86 42 bd 9a f0 47 40 60 0e 06 c0
       -0.4620415 -0.047491074 3.1240602 -2.0946274
0001c0 d3 9b 85 40 fa 9a 03 bf 4e 24 34 bd 7c cf be be
       4.1752715 -0.5140835 -0.043979935 -0.37267673
0001d0 ad 12 31 3f 34 da 72 3d ab d7 f7 be fa dd d5 be
       0.6916912 0.059290126 -0.4840673 -0.41770917
0001e0 7a 8c 57 bf 84 dc ea be 56 ad 91 40 98 27 f6 bc
       -0.84198725 -0.45871365 4.552409 -0.030048177
0001f0 d4 f6 c9 be 80 87 80 ba 1d ba 19 bf ed b4 a6 40
       -0.39446127 -0.0009806007 -0.6004961 5.2095857
000200 d4 b2 02 bf 44 8d d6 3c cc 89 92 bf be 38 49 bd
       -0.5105412 0.026190408 -1.1448302 -0.04912638
000210 98 e8 ce be 05 67 ed be 32 55 05 bf 5f 67 00 bf
       -0.4041183 -0.4636766 -0.5208312 -0.5015773
000220 b3 9f d6 be 68 92 f8 be 82 70 46 bd 7a 3e 68 bd
       -0.41918716 -0.485492 -0.04844714 -0.056700207
000230 af d8 fe be 3e 25 f7 bf 9c 8d 04 3f 35 b5 ea be
       -0.4977469 -1.930824 0.5177858 -0.45841375
000240 64 a6 82 bf a3 5f 9d be 5f f8 b0 be 1a ad df be
       -1.0207028 -0.30737028 -0.34564492 -0.43686754
000250 c0 c1 88 ba 2d cd f9 be 65 41 e2 c0 95 27 f3 be
       -0.0010433719 -0.4878935 -7.0704827 -0.47491136
000260 e6 15 f5 be b4 7e 1f 3f b5 bc 32 c0 6d 3d cb be
       -0.4786827 0.6230271 -2.7927678 -0.39695302
000270 db f1 1e bf b0 47 c3 3b 36 ef 5d 3d e1 db bb be
       -0.6208779 0.0059594736 0.054183207 -0.36691192
000280 ca 6b 95 be dc 0e e9 be dc 25 e6 be cf 6a cc be
       -0.291838 -0.4551915 -0.4495076 -0.39925238
000290 04 9c 6c 3d 44 55 94 bc 1d 68 c0 be 7c 51 f0 bc
       0.057765976 -0.018107064 -0.37579432 -0.02933573
0002a0 4e 49 d6 bf 50 c0 0a bc c0 38 a6 ba 79 79 74 40
       -1.6741121 -0.008468702 -0.0012681708 3.819914
0002b0 5d 8b d2 be db f5 96 be 68 4d ef bc aa 2b 2b 3d
       -0.4112195 -0.29484448 -0.029211715 0.04178969
0002c0 14 6e 28 3f 06 fa 02 bf e4 03 19 3f 1a 81 97 c0
       0.65792966 -0.51162755 0.5977156 -4.7345095
0002d0 91 2f c7 be 24 c4 c5 be 29 98 c8 be fc 06 c8 3c
       -0.38903478 -0.38626206 -0.3917859 0.024417393
0002e0 02 dc e1 be 72 09 e3 3e f7 6b 9b be 29 f3 a6 be
       -0.44113165 0.44343144 -0.30355808 -0.3260739
0002f0 eb 4d 5c bf 85 52 91 3d 50 6d ab bc c9 70 ca 3e
       -0.86056393 0.070958175 -0.020926148 0.39539173
000300 3a 72 e3 be d0 da 96 bc 1e e5 41 bd 6c cb ed 3c
       -0.44423085 -0.018414885 -0.047337644 0.029027663
000310 fe a4 eb be ba de 66 3d 6b c9 ef be 29 d6 11 bf
       -0.46024317 0.056364752 -0.46833357 -0.5696741
000320 c1 3a fc be c0 f3 b9 be 65 29 af bf 17 5a 19 c0
       -0.49263576 -0.3631878 -1.3684508 -2.3961236
000330 27 1d a3 be e0 bc 36 bb 3d 26 c6 3f 13 bc 4a be
       -0.3185818 -0.0027883574 1.5480419 -0.19798307
000340 68 62 7c 3c 38 98 e7 3c c3 3a b4 be c1 68 1f 3f
       0.015404321 0.028270826 -0.35201082 0.62269217
000350 30 7c 0d 3f 80 b3 25 3d fe 58 d6 be b4 64 f0 bc
       0.5526762 0.040454388 -0.4186477 -0.029344894
000360 9b 3a bd be b4 6b f8 3c 9e a7 44 3d ff ec e0 be
       -0.36958775 0.030324794 0.048011415 -0.43930814
000370 90 81 c9 bb c7 f1 af be 84 4b 22 3d c5 e3 ed be
       -0.0061494783 -0.3436415 0.0396228 -0.46462837
000380 ea dc e9 3e e0 bb fc 3c d3 94 d3 3e dc ef e9 3c
       0.45676357 0.030851305 0.4132448 0.028556757
000390 81 51 d6 bf 40 59 d7 3e 42 04 e3 be 76 be 0f 3d
       -1.6743623 0.4206028 -0.44339186 0.035093747
0003a0 7c 23 45 bd 38 71 5b 3f 07 76 8d be 18 e9 03 3c
       -0.048129544 0.85719633 -0.2762911 0.008051179
0003b0 07 96 d5 be 7b ad 9b be f2 8f 03 bf 4f fa af be
       -0.41716024 -0.30405793 -0.5139152 -0.34370658
0003c0 2e 56 1b 3f 4b 9f e2 3e 47 fb 28 c0 0e 96 4c 3d
       0.60678375 0.44262156 -2.6403368 0.04994779
0003d0 9b dc 1f 3f 7b 5e 13 c0 f2 0f f2 be c0 d9 67 bd
       0.6244599 -2.3026416 -0.4727779 -0.056604147
0003e0 c3 dd 88 3e 80 0f 0c ba 64 80 f8 be a6 a8 b7 c0
       0.2673169 -0.0005342886 -0.48535454 -5.739337
0003f0 04 87 81 3c ff 89 ea be 50 e0 1f 3c 3c 87 0a bf
       0.01581145 -0.45808408 0.00975807 -0.541126

linear2.bias f4 [256]
000000 fc 27 50 c1 22 47 a6 c0 0c b3 84 c0 39 2a 33 c1
       -13.009762 -5.196183 -4.1468563 -11.197808
000010 18 67 84 bf 87 28 72 41 d4 33 c2 bf 0b 2f c4 bf
       -1.0343962 15.134894 -1.5172067 -1.5326856
000020 bf e7 d0 c0 10 6f 09 c0 02 7a 2b c1 de b1 31 c0
       -6.5282893 -2.1474037 -10.717287 -2.7764812
000030 ac 34 d0 bf 4a 9f 07 c0 37 e2 42 c0 20 19 c4 bf
       -1.6266074 -2.1190972 -3.045057 -1.5320168
000040 5a c5 a1 c0 62 68 1a c0 df 75 fa 3f b3 e4 21 c0
       -5.055341 -2.412621 1.9567221 -2.5295837
000050 4b 08 46 c1 78 0c 40 c0 d9 49 19 c0 57 db 2c c0
       -12.377025 -3.000761 -2.3951323 -2.7008874
000060 c8 e7 f0 bf ca 91 ba bf ff d0 ca bf 26 17 55 40
       -1.8820734 -1.4575741 -1.584503 3.3295379
000070 a8 15 20 c0 6c e4 97 bf 8d df 0f c0 15 fd f7 bf
       -2.5013218 -1.1866584 -2.2480195 -1.937411
000080 fd a2 cf c1 de f4 aa c0 31 5b 91 c1 a8 c5 29 c0
       -25.954584 -5.342391 -18.169527 -2.652689
000090 25 90 89 c0 d0 35 b8 bf 03 62 bb c0 b5 5e 38 40
       -4.298846 -1.4391422 -5.8557143 2.8807805
0000a0 08 a7 cb bf c6 b5 f5 bd 19 7b 8b c0 82 46 4c bf
       -1.5910349 -0.11997561 -4.3587766 -0.79795086
0000b0 90 0a b1 c0 c2 0a 80 c1 62 b9 58 c1 a5 55 1f c0
       -5.5325394 -16.005253 -13.545259 -2.4896023
0000c0 1b 5f 54 c0 0a 35 28 c0 36 be 11 bf a5 cc 05 40
       -3.3183048 -2.6282372 -0.56930864 2.0906155
0000d0 de 10 a7 c1 80 26 b3 c1 a2 0d ca bf 17 5d 56 41
       -20.883236 -22.393799 -1.578541 13.397727
0000e0 f1 7b d9 bf 6e 8e df c0 56 5a 27 c1 e1 0e ad bf
       -1.6990949 -6.9861364 -10.459555 -1.3520166
0000f0 11 f7 e1 40 98 b0 63 c1 7a 65 23 c0 07 3d 67 c0
       7.0614095 -14.230614 -2.5530686 -3.6130998
000100 df 22 b9 bb ab 90 09 c0 20 d3 33 c0 2e b5 92 c0
       -0.005649909 -2.1494548 -2.809761 -4.5846167
000110 0c db 0d c0 90 83 c8 3f d1 14 7d bf 6b fe 35 c0
       -2.2164946 1.566515 -0.9885989 -2.8436534
000120 f3 be 56 40 5b 01 6b c1 76 45 18 c0 18 8f 0b c0
       3.3554046 -14.687831 -2.3792396 -2.1806087
000130 ce 34 7b c0 f7 6a d9 c0 d0 de ac c0 36 f1 1e c0
       -3.925098 -6.794307 -5.402199 -2.4834723
000140 98 e6 0a c0 6a c5 5f bf bd 5c 5c c0 ee f6 60 bf
       -2.1703243 -0.87410605 -3.4431603 -0.87876785
000150 f6 a8 b2 41 c2 49 55 c0 2e 15 20 41 8a e4 23 c0
       22.3325 -3.3326268 10.005171 -2.560824
000160 78 30 50 c0 f6 4b 1b 40 e5 2b 13 bf f0 5e 8c c1
       -3.2529583 2.4265113 -0.5748885 -17.546356
000170 fe 1f ab c1 25 f8 80 c0 d9 17 34 40 84 5d f0 3f
       -21.390621 -4.030291 2.8139555 1.8778539
000180 fb 67 30 c0 c6 51 8c bf 45 a9 e2 bf 34 09 15 c1
       -2.7563465 -1.0962455 -1.7707907 -9.314747
000190 0d be 76 c0 33 ec 1c c0 95 23 da bf 01 e8 93 41
       -3.8553498 -2.4519165 -1.7042109 18.488283
0001a0 7b a5 07 bf c6 99 b5 c0 b5 d6 6b c0 27 c4 2d 3f
       -0.5298688 -5.675021 -3.6849797 0.6787743
0001b0 40 21 74 bf d5 c3 1c bf f5 6a 5a c1 c2 a6 91 bf
       -0.95363235 -0.61236316 -13.651113 -1.1379015
0001c0 2c 3a 03 c0 39 31 96 c0 6c bf 65 c0 30 06 4f c0
       -2.0504255 -4.6935086 -3.5898085 -3.2347527
0001d0 9b ee f0 c0 b1 96 64 c1 e4 03 43 c0 ea fc 5c c0
       -7.5291266 -14.28679 -3.0471125 -3.4529366
0001e0 b1 9a 22 bf 48 ad 90 c0 1c 2a 88 c0 c4 2e 17 c0
       -0.6351729 -4.5211525 -4.2551403 -2.3622293
0001f0 e8 1a 07 bf c6 c7 96 bb 70 82 02 41 1f 48 2c 41
       -0.5277543 -0.0046014516 8.156845 10.767608
000200 50 0d 38 c1 a6 c6 80 c1 4c 1d 78 c1 18 84 96 c0
       -11.50325 -16.096996 -15.507153 -4.7036247
000210 4b c6 01 c0 7c 10 fa 40 75 fc 88 c0 a2 68 7d c0
       -2.0277278 7.8145123 -4.2808175 -3.9595113
000220 11 27 c9 c0 52 95 60 c0 30 44 22 c0 9b 1a ca c0
       -6.286019 -3.5091138 -2.5354118 -6.3157477
000230 7d 6b bd bf 67 46 02 c2 f9 37 50 c1 b3 ad 17 bf
       -1.4798428 -32.568752 -13.013665 -0.5924942
000240 d7 2e 0f c0 37 0a 16 c1 ee 9e ed 3e 01 c1 2a c0
       -2.2372339 -9.377494 0.46410316 -2.66803
000250 13 5a 5d 3f be 3b f5 bf 4c e2 d3 40 e3 f0 0d bf
       0.8646557 -1.9158857 6.621374 -0.5544569
000260 7f 43 22 c0 f8 23 e5 bf c7 13 17 c0 d4 0f f8 40
       -2.5353696 -1.7901602 -2.360582 7.751932
000270 52 ee 46 c0 b7 2a d7 40 31 a0 1d c0 4d 92 fb bf
       -3.108296 6.723964 -2.4629023 -1.9654022
000280 1b fa 46 bf 31 44 e0 40 20 58 05 bf 2e 91 57 40
       -0.7772538 7.008324 -0.52087593 3.368236
000290 0f 0e c7 c1 55 6c 46 c0 6a ea cd c0 e1 46 01 c2
       -24.881865 -3.100362 -6.434865 -32.319218
0002a0 57 48 c9 be ba d1 e5 bf ed e2 de 40 89 97 9a 40
       -0.39313003 -1.7954628 6.965201 4.830998
0002b0 7f 87 73 c0 cd 35 21 41 4c a1 ff 40 03 07 0f c1
       -3.805145 10.075635 7.9884396 -8.939212
0002c0 24 be 18 bf d8 70 28 c0 22 f0 65 c0 42 f8 9b c0
       -0.5966513 -2.6318874 -3.5927815 -4.874055
0002d0 75 5c db c0 3d 0d 34 c0 80 fc 97 bf 14 e2 e0 c0
       -6.8550363 -2.813308 -1.1873932 -7.0275974
0002e0 2b 6c e9 c0 24 2e ad bf 8c 7b 19 bf 7e 32 75 c0
       -7.294454 -1.3529706 -0.5995414 -3.8312068
0002f0 6c 7e 0a c0 11 8e fc bf b0 92 84 c0 96 40 a6 40
       -2.1639662 -1.9730855 -4.142906 5.195384
000300 51 8d 4a c0 83 ee 87 c0 31 24 7f c0 6f bc a2 bf
       -3.1648753 -4.247865 -3.986584 -1.2713755
000310 63 50 a9 40 c9 92 0b bf 7e b7 08 c0 be d5 c6 40
       5.291063 -0.5452085 -2.1361995 6.2135916
000320 c0 0b 96 41 94 33 92 bf 39 21 07 c0 70 9c 15 c1
       18.755737 -1.142199 -2.1114028 -9.350693
000330 d0 85 31 c0 74 72 65 bf ad 90 6a c1 70 65 08 bf
       -2.7737923 -0.89627767 -14.660321 -0.5327978
000340 99 f0 44 bf 1c 6f 23 3f 52 c9 ad c0 4b a5 0e c0
       -0.7692962 0.63841414 -5.430825 -2.2288387
000350 df 0d 10 bf 3c 1d e9 be 6e 7d b0 c0 b4 a5 87 c1
       -0.56271166 -0.45530117 -5.5153112 -16.95591
000360 92 83 ef 41 7c c4 66 3e 73 a3 23 c0 00 ab 2c c1
       29.939243 0.2253589 -2.5568511 -10.791748
000370 e2 82 40 41 84 bb 8c c0 14 04 43 c0 62 eb 08 c0
       12.031954 -4.39789 -3.047124 -2.1393666
000380 4e 4b 06 41 7d ce 8a c0 b8 e9 43 c0 be 9b 0c bf
       8.393385 -4.337706 -3.06114 -0.54925144
000390 4f 42 e6 bf a7 3f bc c0 f1 3e 00 c0 63 f2 3a c0
       -1.7988986 -5.88277 -2.0038416 -2.921044
0003a0 ff ae ca bf 1f 89 23 c0 90 97 96 40 de 8d 35 c0
       -1.5834655 -2.5552442 4.7060013 -2.836784
0003b0 bc 7b 0b bf 31 aa 24 c0 ea e1 b1 bf 9f ef f2 c0
       -0.5448568 -2.5728877 -1.3897069 -7.5917506
0003c0 de 60 6e c1 6b cf b9 bf 1f 52 e6 bf 5c 45 6e c1
       -14.898649 -1.4516424 -1.7993811 -14.891933
0003d0 c7 5e a7 bf c2 1f b2 c0 26 95 3e c0 f5 2c ea c0
       -1.3075799 -5.5663767 -2.9778533 -7.317988
0003e0 61 d1 32 c0 6a 07 21 c0 e7 9e 16 be ab 92 06 c0
       -2.7940295 -2.5160775 -0.14709054 -2.102702
0003f0 f5 4e e1 bf 82 7e 2d c0 13 7f 0f bf df 04 fe bf
       -1.7602221 -2.7108464 -0.56053275 -1.9845237

linear3.weight f4 [4, 256]
000000 ff d0 04 41 19 a7 93 3f 01 1f 92 3f 23 77 b4 40
       8.301024 1.1535369 1.1415712 5.639543
000010 00 59 57 bf 3d a3 87 c0 d1 78 0e 40 62 f8 5b bd
       -0.8412018 -4.2386765 2.226124 -0.053703673
000020 d5 68 9c 40 80 bf a9 3f 02 69 af c0 d2 d4 0b 3f
       4.887797 1.3261566 -5.4815683 0.54621613
000030 dc e0 a3 bf 74 16 39 bf fd d6 ec 40 60 59 30 40
       -1.2802997 -0.72299886 7.4012437 2.755455
000040 02 73 74 40 6d 6b 22 bf 67 93 47 41 44 e3 06 bf
       3.8195195 -0.6344517 12.473487 -0.5269053
000050 5a 73 04 c1 66 6f 86 3f 28 24 8b 3e e1 8d f6 3e
       -8.278162 1.0502746 0.27176023 0.4815512
000060 72 cd 6f bf 28 f0 11 3f 84 67 70 bd f8 92 50 41
       -0.9367286 0.57007074 -0.05869247 13.035881
000070 d5 be 2f bf ad 0c 22 3f 34 b5 3c 3f 84 08 9f bf
       -0.6865056 0.6330059 0.73713994 -1.2424474
000080 5f 19 a0 40 0d d4 bc 3e 37 c0 c1 c0 db 97 d0 3f
       5.003097 0.36880532 -6.0547137 1.6296343
000090 17 06 90 40 ae cf 76 40 6f 0c c2 3e 6e d0 13 40
       4.5007434 3.8564258 0.3790011 2.3095965
0000a0 54 ec d3 3c 7a 64 06 40 8d d7 c7 c0 8a a0 44 bc
       0.025869526 2.0998826 -6.2450624 -0.012001166
0000b0 bc cc d0 3d 61 f1 72 c0 22 c4 a0 40 63 d6 16 3f
       0.101953 -3.7959826 5.023942 0.5892088
0000c0 54 7d b2 bd 86 51 fe 3f 97 bb ea be 4b b7 9d 3f
       -0.08715311 1.9868629 -0.45846245 1.2321562
0000d0 87 4a f4 40 3b 61 9e 41 de 5b b7 bf 9a 7d 73 41
       7.6340976 19.797476 -1.4324911 15.218164
0000e0 19 ad 17 c0 87 dd 1b 40 07 7a 04 c1 4f a5 3a 3f
       -2.36994 2.435396 -8.279792 0.7290849
0000f0 3c 0f ca c0 d6 b9 bd c1 9a d5 04 bf eb 17 36 bf
       -6.3143597 -23.71574 -0.5188843 -0.71130246
000100 48 11 bf 40 06 17 77 bf f5 de 0a 3f 6d db 9a 40
       5.9708595 -0.96519506 0.54246455 4.8392854
000110 0b 88 6a 40 97 5c 29 41 34 f6 84 c1 3e 08 cb bf
       3.6645534 10.585105 -16.620216 -1.586189
000120 85 b7 21 40 32 c1 2c c1 f6 34 ca bf db b9 13 3f
       2.5268261 -10.797167 -1.5797412 0.5770547
000130 5b e4 ee 40 e5 e9 d3 3e 9e 61 c9 3d d0 99 b1 3e
       7.4653754 0.41389385 0.09833072 0.34687662
000140 32 75 0b bf 47 d6 ff be ca 40 fe be 2d d4 c4 3f
       -0.544757 -0.49968168 -0.49658805 1.5377251
000150 79 8c 47 c1 ab 95 f2 3f f3 21 22 c0 f0 0d ab bf
       -12.471795 1.8951925 -2.533322 -1.3363628
000160 59 1d 21 40 5f 9d a1 c0 80 d4 46 bb 8b e3 71 bf
       2.5174162 -5.0504603 -0.0030339062 -0.9448783
000170 99 6b 7c 40 69 74 e8 bc 2c 07 a6 3f 35 ee eb 3e
       3.9440672 -0.028375821 1.2970939 0.46080175
000180 8c 35 c7 bf 18 7f a6 bf 1d 70 01 40 ce ca 47 41
       -1.5563216 -1.3007536 2.0224679 12.487013
000190 1f 57 0f 40 a6 b0 f3 be b5 05 3f 3f d6 13 f0 40
       2.2396924 -0.4759571 0.74618083 7.5024214
0001a0 7a ec f7 be ac 62 60 3e 91 69 21 c0 4c 01 dd 3d
       -0.48422605 0.2191264 -2.5220683 0.10791263
0001b0 0e ad 98 3e 71 db 0e 3f 43 74 0d 40 34 70 a4 bf
       0.2981953 0.5580359 2.210221 -1.2846742
0001c0 98 69 1d 40 bc a7 52 40 44 c9 5d 3f fe aa fe be
       2.45957 3.2914877 0.8663523 -0.49739832
0001d0 41 43 86 bf 6d 5e 1c 40 8d b6 6c 3f cd 34 8b 3e
       -1.0489274 2.4432633 0.9246605 0.2718872
0001e0 e8 dd 10 bf 4a 89 8c be 9c 2f 09 bd 04 d3 f6 3e
       -0.565886 -0.27448493 -0.03349267 0.48207867
0001f0 2c 3f ed be f2 80 cc be 36 b2 62 41 62 a7 8f c0
       -0.4633726 -0.39942127 14.168509 -4.4891825
000200 19 b8 89 3f 8f f1 30 41 40 41 f1 40 d6 de 8b bf
       1.0759307 11.058974 7.539215 -1.0927379
000210 2b 5b 9a 3f e4 14 48 c1 22 9b 47 bf c0 9e b3 bd
       1.2059072 -12.5051 -0.7797109 -0.087705135
000220 c6 a8 30 3f 45 39 48 c1 88 44 10 3f e6 7b 28 3e
       0.6900753 -12.513982 0.5635457 0.16453514
000230 5f 85 13 40 35 38 83 40 7b 63 03 40 de e1 0f 3d
       2.3050153 4.100611 2.0529468 0.035127513
000240 72 d3 88 3f 7d ec 62 bf 3b 83 9b 3f 9c be 57 40
       1.0689528 -0.886421 1.2149423 3.3710089
000250 38 10 a9 c0 d4 c3 96 40 56 d8 05 3f 46 13 08 3f
       -5.28323 4.711405 0.5228323 0.5315441
000260 7b 49 b6 bf b2 47 d7 3d 1c d0 48 40 b4 39 d7 c1
       -1.4241174 0.10511722 3.137702 -26.903175
000270 38 d4 6f bf d2 a7 04 bf dd 27 b7 bf 9b 19 11 bf
       -0.93683195 -0.51818573 -1.430904 -0.56679696
000280 74 98 2c bf 9b 4e 51 41 78 82 be be 83 c8 0b 40
       -0.67420125 13.081691 -0.37208915 2.1841133
000290 24 c4 42 40 1e 6e 30 bf e8 22 0d 3f 96 e5 76 41
       3.0432215 -0.68918025 0.5513139 15.431051
0002a0 d9 3a ff be 29 b2 92 bf dc 17 e8 3e 5f ab 0c 40
       -0.49849585 -1.146062 0.45330703 2.1979597
0002b0 3c 95 a7 3f 8f 0b 5a c1 4a 74 93 c0 fe 98 25 c1
       1.3092418 -13.627822 -4.6079454 -10.349852
0002c0 76 51 5e bd 63 1a 15 3f 62 d2 82 bf 63 e9 77 c1
       -0.054276906 0.5824339 -1.0220454 -15.494479
0002d0 36 15 83 3f f0 cc 16 3f 40 4f 44 be b2 57 13 40
       1.0240848 0.5890646 -0.19170856 2.3022275
0002e0 9f 3e 34 41 79 f5 ca be 28 4d e2 3e c4 91 63 40
       11.265288 -0.39640406 0.4419949 3.5557718
0002f0 48 2a 02 bf 1b 82 10 3f c9 6a bb be b0 0d 9d c0
       -0.50845766 0.56448525 -0.36604908 -4.907921
000300 4b 13 88 3f 42 6d 6e 40 94 47 35 3f 65 8b a7 be
       1.0630888 3.7254186 0.70812345 -0.32723537
000310 6b 97 ea bf 43 be 18 3f 95 c4 6c 3e 2f af a4 3f
       -1.8327459 0.59665316 0.23121865 1.2865962
000320 d9 ce a2 c0 a8 bb ac bf be 78 e9 be bb 9c 4e c1
       -5.08775 -1.3494768 -0.4559993 -12.913264
000330 81 a2 e6 bf 4b 2a 59 40 e9 5f 58 c1 fe 50 d7 3f
       -1.8018342 3.3932064 -13.523416 1.6821592
000340 eb fb b8 bf 3e 33 93 c0 0d c0 e4 3e 36 aa 75 bf
       -1.4451879 -4.600005 0.44677773 -0.95962846
000350 c4 6f 08 3d 1c aa e8 be 9b fc 90 c0 e2 d3 63 41
       0.033309713 -0.45442283 -4.5308356 14.239229
000360 b7 a4 ce c0 8f 7a c0 be 31 32 b3 3f 68 30 11 bf
       -6.457607 -0.37593505 1.3999692 -0.5671449
000370 4d 5f 9b 40 9e 5b 89 3f 2f 0e 85 40 d2 a4 e6 3e
       4.8553834 1.0731084 4.1579814 0.45047623
000380 74 46 44 bd 04 b4 82 c1 4e 22 12 3f 82 43 f3 be
       -0.04791875 -16.337898 0.57083595 -0.47512442
000390 aa 15 13 3f 68 f8 2d c0 95 8c 55 40 23 31 cf 3f
       0.5745493 -2.7182865 3.3367054 1.618687
0003a0 f2 aa 40 40 52 0b 03 bf 83 1f ac c0 af 2b d2 bf
       3.0104337 -0.5118915 -5.3788466 -1.6419581
0003b0 df 2e 1c 3f e2 8d 18 c0 fb 4d 94 bf 6c 38 cd 41
       0.6100902 -2.3836598 -1.1586298 25.65255
0003c0 6a 11 26 41 44 3a 09 3f ff 1a 15 40 2a 60 a1 41
       10.3792515 0.5360453 2.3297727 20.171955
0003d0 e8 b9 c4 3e 65 18 43 3f c8 cb 12 3f 71 9c e5 3e
       0.38423085 0.762091 0.57342196 0.44845918
0003e0 36 43 b1 3f ba e6 f9 3e 67 e4 7c c0 d0 7c 73 bf
       1.3848636 0.48808843 -3.9514406 -0.95112324
0003f0 96 af 92 3f a3 32 4d 40 90 36 69 3d cb 2a d3 bf
       1.1459835 3.2062156 0.0569368 -1.6497434

linear3.bias f4 [4]
000000 25 5d 44 c1 7b 60 d8 3f 05 83 2c c0 d9 e4 35 c0
       -12.27274 1.6904444 -2.6954968 -2.8420928
